ai/practice/pytorch/load_save_inference/model.pth (torch, 251292 bytes, 10 tensors)

conv1.weight f4 [6, 3, 5, 5]
00000000: efb6 15bc b1cf cdbd 6aa3 5d3d e549 c0bc
00000010: c0b8 c53d 4d90 7c3d 8446 e8bd 705b 25bc
00000020: 82e0 c5bc ef9f 933c e1f2 15bd a382 49bd
00000030: b4eb bd3c 0bbe 76bb 6961 dcbd 1b8e e93d
00000040: 3796 55bd d76e c23d 644e 4c3d 6310 913d
00000050: 1084 86bd 2d29 ec3d bb69 8abd 0969 903d
00000060: 44e2 5bbb b18a a83d e793 983d f277 e33d
00000070: 6216 4e3d 2b8f 1bbd 445f c6bd dde0 ebbd
00000080: c2f8 e13d a3b7 bf3d 566c 92bd 01d7 be3d
00000090: 986d c33d a735 bd3d ae68 543d a63b 7cbd
000000a0: 7505 3d3c eaff 8a3d e3df 773d c7fe 36bd
000000b0: 6e5c e4bd ba20 7cbd bf9c 3fbd d9d3 fdbb
000000c0: 2941 adbd f613 e03d 8ae9 6f3c 7c30 06bd
000000d0: f62c cdbd 1e61 6dbb 26b8 bd3d 040c 68bd
000000e0: 4c08 26bb ac53 57bd e2d6 8e3c a1e6 13bc
000000f0: 868d d13d 78d3 aa3d 20c7 48bd b4b9 cf3d
00000100: 11ff ca37 8eee 443d bccb 8ebd b8d5 8cbd
00000110: 2400 d33d dbf0 cd3b da2c 9e3d da72 9c3d
00000120: 994e c83d fc12 dc3d f8fa 44bd 9f87 8bbb
00000130: 95a9 d1bd b222 80bd bd77 c23d be9c 183d
00000140: fbdb 26bd 4d3e f83c 06e0 80bd 194a fbbb
00000150: 3377 453d 98e0 503d 1c3f e3bc a428 08bd
00000160: f303 e7bc ac12 a4bd f2d8 dc3d e804 873d
00000170: 168b b33d 095b c23c cd27 183d cc7a b5bd
00000180: 36c2 aa3d cc9b acbd d4b2 c93d 60bc 113c
00000190: 17c4 98bb 8684 e13d b182 043d fae9 bb3b
000001a0: 2289 c3bd f628 b4bc b094 99bc ee5d 353d
000001b0: c4bd 5ebd f0b5 bebd 4032 a3bc 2b0b 8dbd
000001c0: 525c b33c b838 933d 21a3 43bd 5ca7 cd3c
000001d0: a226 b1bd dcc5 0b3a a608 a43b 7cac 5bbd
000001e0: c372 893d 1089 6fbc 0994 ad3d b85b 63bd
000001f0: 024c 9fbd f32f ef3c 7fd0 74bd 02e6 a8bd
00000200: ebad a3bc 1088 a83d 8b7b 803d b88f b8bc
00000210: a31a b93d c104 b63d cd74 e43d 5ec3 96bd
00000220: 13a2 ff3b 6635 f2bc 0d1f d5bc f7a0 f9bc
00000230: 9f80 1a3d ebdd 9dbd f707 6b3d 0aec d83d
00000240: bdc6 2f3d d650 c33d 2e04 183d 2561 313d
00000250: e0cd 913d 1726 e1bc 63db 5dbd 94d3 3a3d
00000260: 58ce 703c d029 a3bd 0fe2 a0bd 103a b7bd
00000270: e82c f33b 3b91 b43c 836e a0bd 0e24 f9bc
00000280: 8bf2 9ebd 8a45 d83d 57d7 4c3d 4ebe bc3d
00000290: ca10 953d f165 97bd 3dd9 e93d 17f4 4c3d
000002a0: 46b7 5ebd 2cf0 7bbd 4461 613d e88d eabd
000002b0: e1f9 923d fea3 2b3c 3315 c4bd fbe9 a9bd
000002c0: ccbc 9e3c 93e8 413c 9afd 9f3d f200 18bc
000002d0: c9b2 d9bc 2e38 14bd 3bf6 c1bc 5ebd c1bd
000002e0: a49f bc3c 47ce b73d 91ff 38bd 31ab 893c
000002f0: 026b a43d a86f cebd 6a75 8f3d 7d80 cfbd
00000300: 18a5 e7bd 293d ad3c 1668 8dbd 4275 34bd
00000310: c045 cfbc 7233 e13d f197 8c3d 5b9c b1bd
00000320: b811 723c fb25 c63d 8960 c6bc cbab ee3c
00000330: 10cf dd3c b390 db3d 9e65 c6bc 9929 d43d
00000340: b045 15bd 7817 9dbd 9322 a2bc bc41 19bd
00000350: ec04 7ebc 3061 73bd 6be8 463d 757d 8a3d
00000360: fc89 dcbd d607 393c d6f2 c6bc 0dd5 d4bd
00000370: 2731 df3c 3810 bdbd 253a cfbd 57b6 11bd
00000380: a6d7 cfbc 5ce4 563d 6331 a1bd f7ae 523c
00000390: 6d60 f73c cc2d aabd 3d4d ad3d 57bd 033b
000003a0: c366 40bd e2e6 65bd 892a ebbc 4855 dbbd
000003b0: 4e8c dd3d 3261 d2bc 7220 a0bc 3e4a c23d
000003c0: 1c7f 933d 0b44 3dbc 1783 013c 5ee9 513d
000003d0: 4a73 a23c 4c97 3d3d 0420 79bc 2695 87bd
000003e0: b589 1d3d 4cd7 6ebc 108f d6bd 0b1c c03d
000003f0: 1cf7 6e3b e7ac 81bd 6db1 e33c 7097 eb3d
-0.009137853 -0.100493796 0.054110922 -0.023472736 0.09654379 0.061661053 -0.11341575 -0.010092601
-0.024154905 0.018020598 -0.03660858 -0.04919685 0.023183681 -0.0037649896 -0.10760767 0.114040576
-0.05214521 0.09493797 0.049879447 0.07083204 -0.06568158 0.11531291 -0.06758448 0.07051284
-0.0033551613 0.08229578 0.07450085 0.11106862 0.050314315 -0.037978332 -0.09686139 -0.11517499
0.11033775 0.09361198 -0.0714957 0.093183525 0.09542388 0.09238749 0.051857643 -0.061580323
0.011536946 0.06787093 0.06051625 -0.04467657 -0.11150442 -0.061554648 -0.046780344 -0.0077462015
-0.08459694 0.10941307 0.014643082 -0.032761082 -0.10018341 -0.0036221216 0.09263639 -0.056652084
-0.0025334535 -0.05257003 0.017436448 -0.009027154 0.102320716 0.08341116 -0.049018025 0.10142842
2.4199051e-05 0.048079066 -0.06972453 -0.06876701 0.10302761 0.0062848157 0.077233985 0.07639094
0.09780616 0.107458085 -0.048090905 -0.0042581107 -0.10237423 -0.062566176 0.094954945 0.037258856
-0.040737133 0.030303145 -0.06292729 -0.0076687452 0.04820938 0.05099544 -0.027740054 -0.033241883
-0.028200125 -0.08011374 0.107835665 0.06592733 0.08766763 0.02372505 0.037147332 -0.08861312
0.08337824 -0.084281534 0.09848562 0.00889501 -0.0046620476 0.11011605 0.0323512 0.0057346793
-0.095476404 -0.021992188 -0.018747658 0.04427903 -0.054380193 -0.093120456 -0.019921422 -0.06886896
0.021894608 0.071885526 -0.047762994 0.025104217 -0.08649947 0.00053319125 0.005005914 -0.05363129
0.06711342 -0.014620081 0.08475501 -0.05550739 -0.07778169 0.029197669 -0.05976915 -0.082469955
-0.019980391 0.08229077 0.06273564 -0.022529468 0.09038284 0.088876255 0.111550905 -0.07361482
0.007801303 -0.029566478 -0.026015783 -0.030472262 0.03772032 -0.07708343 0.057380643 0.10591896
0.04291414 0.095369026 0.03711336 0.043305535 0.07119346 -0.027483983 -0.0541643 0.045611933
0.014697634 -0.079669595 -0.07855617 -0.089466214 0.0074211247 0.022041908 -0.078335784 -0.0304127
-0.07761105 0.105601385 0.05001005 0.09215985 0.07278593 -0.07392491 0.11418388 0.05003747
-0.054374002 -0.061508343 0.0550244 -0.11452848 0.07176567 0.0104761105 -0.09574356 -0.08296581
0.019377135 0.011835235 0.078120425 -0.009277569 -0.02657451 -0.03618639 -0.023676982 -0.09459947
0.023025341 0.08974891 -0.045165602 0.016805263 0.080282226 -0.100798905 0.07004817 -0.10131929
-0.11310786 0.021147327 -0.069046184 -0.04405714 -0.025301814 0.109961405 0.06864918 -0.086724006
0.014774732 0.09675213 -0.024215953 0.029134652 0.027076274 0.107209586 -0.024218377 0.103594966
-0.036443412 -0.07670492 -0.019791877 -0.037416205 -0.015504103 -0.059418857 0.048561495 0.0676221
-0.10768506 0.011293372 -0.024285715 -0.10392199 0.027245117 -0.09231609 -0.10118512 -0.035574283
-0.025371384 0.052463874 -0.07870748 0.012859098 0.030197347 -0.08309516 0.08461998 0.002010187
-0.046973 -0.05612839 -0.028706806 -0.107096255 0.108177766 -0.025681112 -0.019546721 0.09486817
0.072019786 -0.011551867 0.007904789 0.051247947 0.019830365 0.046286866 -0.015205387 -0.06620245
0.038461406 -0.014577698 -0.10476506 0.09380349 0.0036463207 -0.06331807 0.027794564 0.11503494

conv1.bias f4 [6]
00000000: 46e9 e4bd 67e1 ab3d d01f 203d dca0 c73d
00000010: b4c1 953d 85fd 32bc
-0.11177306 0.083926015 0.03909284 0.09747478 0.073123366 -0.010924702

conv2.weight f4 [16, 6, 5, 5]
00000000: cdd8 963d d317 5e3d 8b5d 8fbc 6f7f 59bc
00000010: eb79 5b3d ad90 a1bc 5598 38bd 54d5 61bd
00000020: 8e36 483d b2c2 053d 3012 31bd c65a babc
00000030: 1372 8dbd 8270 8cbc 714f 933d fd89 9fbd
00000040: 5441 42bd 3413 d23b 6365 5c3d bfd8 2c3d
00000050: 68a8 6cbd 7047 25bd 8fb2 5e3d 9bc4 df3c
00000060: cb84 85bc 65ea a43d 8be0 a73c 8c87 0d3c
00000070: e30e 523d 1099 a43d 2449 023d c62c 16bd
00000080: 6d8d f73c 90c3 79bd 93bf 9dbd bb15 17bc
00000090: 1996 723d 7361 893b 0c22 b03c 3638 76bd
000000a0: 8196 48bd e709 97bd a868 793d acb6 a0bd
000000b0: b60a a33d 5bb1 5f3c b25f 843d 7a9f 86bd
000000c0: 26b8 5d3c 9e8e 383c 8731 073d 4572 f33c
000000d0: a0cf 5dbd d6b6 753d 4187 863d 35d8 82bd
000000e0: 3017 543d 73bb de3c f8ea 9bbd 660e b9bc
000000f0: c8f9 383c 2435 8dbc 2ea6 0e3c fa1d 94bd
00000100: ff13 833d eef3 12bd cc98 973d 0524 37bd
00000110: d8c1 8f3d dd7b 973d 579d 473d dfcb 98bd
00000120: 0dc9 4bbd ad1c cabc e177 9e3b 9649 08bd
00000130: 96bd 3d3d c684 43bd 3e8b a4bd 4622 50bd
00000140: 1f08 4ebd 8c13 5abd 578e 7ebd ca9e c7bc
00000150: c165 d43c c92f 663d 5719 8abd 3330 bcbc
00000160: c5cf 84bd 9721 ddbc 9f43 a33d 92fe 5c3d
00000170: 0f76 88bd 91e7 353d d8b9 ef3a 28c9 c8bb
00000180: 685e b5bc 22e5 9d3c e65c c4bc 7a6d 33bd
00000190: 5f39 6b3d 87f5 8f3d a1f5 e0bb 8feb 9abd
000001a0: 004f a1bd 702c c23c 169c ecbc 8c40 333d
000001b0: d0f3 853d 3b7f 97bd b64b 6b3d 32cc eabc
000001c0: 4fe2 0c3d 0c68 2abd 9ddc 41bd 16a3 28bd
000001d0: 446d 9ebd 2069 363d 035b c83a 9289 31bd
000001e0: ec2f 5abc 3828 88bd 8c0b 103d 689e d33c
000001f0: 42af cfbc a3ad 59bd 4463 adbc 6a6f 86bd
00000200: e9ab 0c3d 2309 e7bb 4936 3d3d 4fac 6abc
00000210: f3ec 063c f5a9 3cbd 1c0d 1dbc da8d 153b
00000220: 3cc7 08bd c804 943d a791 503b bf7b 8c3d
00000230: 948d 61bd 1abc a6bd d9ac 34bd f4f2 cebb
00000240: 4c68 8c3d 2952 053d f593 80bc 543f 8dbc
00000250: eff0 72bd d7f4 aebc 7f9c 85bd 068b 5fbc
00000260: b19d 38bd 2694 993d 6f68 93bb 8b21 183c
00000270: b7e0 6dbd a930 96bc 1984 d83c c083 1a3d
00000280: 9187 f73c ffa7 983d 90bd 6b3d 0ade 33bd
00000290: 06eb 71bc 82f5 653d a018 e5ba a053 5bbd
000002a0: 1a3f 45bd 489f c4bc b480 fdbb 3450 68bd
000002b0: 91a0 433d 352f 8f3c 9fb1 2e3d 5784 90bc
000002c0: ed23 58bd 444e 14bd 73f7 a3bd 5854 1fbd
000002d0: 7660 853c f265 a4bd ab8d 033d 376b 93bd
000002e0: 74c2 10bc f9b2 a53d 33ec 973d 688e 393d
000002f0: 92cb 5cbc 64db 1abd 887a 14bd 2381 3dbd
00000300: 166f 13bd a26f 60bd 192e 893d d6c8 dcba
00000310: 73d4 e93c 5d1e 9fbd e444 e1bc 777d 923d
00000320: c190 9a3d 7696 703b d513 313d 9887 9c3c
00000330: dfba bdbc b697 913d 5fc4 e8bc 023b 2abd
00000340: ba63 1cbc 2179 863d dedb 4dbd c652 e6bc
00000350: ac6a 26bd aa47 76bc 5e9e a7bc f554 09bc
00000360: e81c 01bd 5fd9 3ebd dae3 ff37 fa08 4ebd
00000370: a174 c8bc 828f 9e3d 6958 923d 7d90 803b
00000380: c12a 62ba 2e7f 62bc ed38 14bc 0639 9a3d
00000390: ede3 36bd 2048 86bd 5ebd 633d 9918 59bc
000003a0: 520f 953d a824 9ebd fa83 673d a1a6 3fbd
000003b0: 7763 a6bc e95e 91bd 6906 5ebd 20a4 65bc
000003c0: e786 e1bc 7639 203d 8ca7 63bd 36f0 843c
000003d0: d92b 20bd 6278 e7bc 2617 1f3d 0dd6 27bc
000003e0: e7bf 533d eec7 bebc f01e 79bd 5554 2c3d
000003f0: 0e50 8c3c b757 5f3d 0114 6bbc 0ffe e8ba
0.0736557 0.05422194 -0.01750066 -0.013275011 0.053583067 -0.019722307 -0.04506715 -0.055135086
0.048880152 0.03265638 -0.043230236 -0.022748362 -0.069065236 -0.017143492 0.071928866 -0.07789991
-0.047425583 0.0064109806 0.053807627 0.042198893 -0.057777792 -0.04035133 0.054369505 0.027315428
-0.016298672 0.0805252 0.020492813 0.008638274 0.05128373 0.08037007 0.031808034 -0.036663793
0.030218804 -0.06097752 -0.077025555 -0.00922149 0.059225176 0.004192525 0.02150061 -0.0601122
-0.048971657 -0.073749356 0.060890824 -0.07847342 0.07961027 0.013653125 0.06463565 -0.065733865
0.013532674 0.011264471 0.033006217 0.029717574 -0.054153085 0.05998882 0.065687664 -0.063888945
0.051779926 0.027188992 -0.07613176 -0.022589874 0.011290021 -0.017237253 0.0087066125 -0.0723228
0.06400298 -0.03587716 0.074021906 -0.044712085 0.07019395 0.07396672 0.048734035 -0.0746076
-0.049752284 -0.024671877 0.004836068 -0.033273302 0.04632338 -0.047734044 -0.08034371 -0.050813936
-0.050300714 -0.053241298 -0.062147465 -0.024367709 0.025927426 0.056197915 -0.067431144 -0.022972202
-0.064849414 -0.026993556 0.07971882 0.053953715 -0.06663143 0.044410292 0.0018289639 -0.0061274953
-0.022139743 0.019274298 -0.023970079 -0.043805577 0.05742776 0.070292525 -0.0068652187 -0.075644605
-0.07876396 0.02370283 -0.028883021 0.04376273 0.06540644 -0.07397314 0.05744525 -0.028661821
0.034395512 -0.041603133 -0.047329534 -0.041171156 -0.077356845 0.04453385 0.0015285913 -0.043344088
-0.0133170895 -0.06648296 0.035167262 0.02583237 -0.025352124 -0.05314411 -0.021165498 -0.06564219
0.034343634 -0.0070506497 0.04619435 -0.014323308 0.008235204 -0.04606052 -0.009585645 0.0022820146
-0.03339313 0.072274745 0.0031825097 0.0685954 -0.05506666 -0.08141346 -0.044110153 -0.0063155834
0.068558306 0.032549057 -0.015695551 -0.017242111 -0.059311803 -0.021356983 -0.0652399 -0.013643986
-0.04507226 0.0749896 -0.0044985334 0.009285341 -0.058075633 -0.01833375 0.026430177 0.037723303
0.03021601 0.07453918 0.057553828 -0.043912925 -0.014765507 0.056142338 -0.0017478652 -0.053546548
-0.04815588 -0.024001732 -0.00773629 -0.056717113 0.04776055 0.017478565 0.04264986 -0.01764123
-0.052768636 -0.036207452 -0.080061816 -0.038898796 0.016281348 -0.08027257 0.032117527 -0.07198184
-0.008835424 0.08090777 0.07418098 0.045301825 -0.013476269 -0.037806883 -0.036249667 -0.046265732
-0.03599461 -0.05479396 0.066982456 -0.0016844522 0.028543686 -0.07769463 -0.02749867 0.07152837
0.07547141 0.0036710775 0.043231804 0.019107625 -0.023160396 0.07109015 -0.02841395 -0.04156018
-0.009545261 0.06566072 -0.05025851 -0.028115641 -0.040629074 -0.0150317345 -0.020461258 -0.008382072
-0.031521708 -0.04659402 3.050447e-05 -0.05030153 -0.024469675 0.07742216 0.07145769 0.0039234743
-0.00086275866 -0.013824267 -0.009046775 0.075304076 -0.04465096 -0.065567255 0.055600516 -0.013250493
0.07278313 -0.077218354 0.056522347 -0.04678977 -0.0203111 -0.07098181 -0.054205332 -0.014016181
-0.027530147 0.0391173 -0.055579707 0.016227823 -0.039104316 -0.028255645 0.038840435 -0.010243905
0.051696684 -0.023288693 -0.06082052 0.042072613 0.017128017 0.05452701 -0.014348031 -0.0017775911

conv2.bias f4 [16]
00000000: ea1f acbc 11db cc3c 1ed4 9cb8 5fc0 86bc
00000010: 421c 34bc 9949 50bc 22ff 91bb c204 79bd
00000020: fa19 6cbc 7ceb a4bd 7fd1 fa3c 14fc ce3c
00000030: f5cc 41bd 0f8e d0bb f428 9cbd a84d 8d3b
-0.021011312 0.025006803 -7.4781696e-05 -0.016449152 -0.010993065 -0.01271286 -0.004455463 -0.060795553
-0.01441049 -0.080527276 0.030617474 0.025266685 -0.047314603 -0.006364591 -0.07624999 0.004312236

fc1.weight f4 [120, 400]
00000000: 0ddc d5bc cd44 37b9 83c5 b33c b7f9 44bd
00000010: da43 d43c 0d6c d5bb a212 3d3d 9bdc 283d
00000020: b3b8 8fbb f028 fa3c a028 f33c 1a91 51bb
00000030: 8bd9 33bd 601c f3bc 28e2 27bd b59d 34bd
00000040: da31 2abd 4df2 53bc f0a3 a3bc 30d0 d93c
00000050: 8dff 8fbb ba20 1bbd 67a7 58bc 401c fb3b
00000060: c373 02bd 3b93 193d 3db4 8bbc 97fe 8f3c
00000070: 42f0 0dbd 1a58 ce3b 8745 153d 2b8e 31bd
00000080: 3d07 44bd 9a76 f2bc 9a7d 803a 1f83 3a3d
00000090: ed8c a83c 673c f0bb 33dd ac3a 6d08 e5bc
000000a0: 7289 30bd 331c e3ba ba1d 6ebc 02b2 0abd
000000b0: 130c 2ebd 3a4b 47bd 2d87 d5bc 5fcb 013d
000000c0: dae3 fd3c 6dfa e43c c85b 333d 67fd 683b
000000d0: 1a0a c23b 7761 253d a203 213d ea2a b1bc
000000e0: 0f41 253d b0d4 83bc ba28 8c3c 9d89 80bc
000000f0: d0c0 323d 5398 2abd fb11 123d 8db4 a83b
00000100: 5d2d eebc 1a11 9cbb 3770 44bd da75 15bd
00000110: 8d64 0f3c 337d dc3b 1048 d13c c05d e4bc
00000120: d378 6e3c 7338 0f3c 1dc9 2e3d 173d b53c
00000130: baee fabc 3aa0 033c 076b 28bd 5a6b d93b
00000140: 735d 8a3b 3ff2 073d 3393 f9b9 f354 afbc
00000150: 63cc dabc 98f9 34bd 5d8a ac3c 4d90 91bc
00000160: 9ab8 493b 1236 24bd c3fe e8bc e7ba cdbb
00000170: 83e8 33bd aace c73c 0395 d93c fd27 47bd
00000180: 3393 24bd e75c 4abc 4029 333c ea26 03bd
00000190: b3aa 713c c8c5 13bd e8ad 29bd a7ab cfbc
000001a0: 0058 1abb 5d03 2abd 5717 dfbc 00e2 0cba
000001b0: 33ae 1bbd 4714 0cbc 5706 d43c a76b 433d
000001c0: 33e8 d13c 0058 3a39 83d9 bf3c 87ba 4c3d
000001d0: 7a8d 07bc e7fc 7f3c 50f1 0ebd 12f0 2bbd
000001e0: e72d 24bb e7ef c2bc 8012 2cbb 9a6f 27bd
000001f0: 48a2 4b3d 33b7 e33a 8dba eabb 9abf b7bb
00000200: d2bc 3abd 5736 22bd d336 26bc 42d7 21bd
00000210: 6295 283d 4035 05bc e738 ab3c b345 a03c
00000220: 334c 6a3b 5ad1 723c 53e6 3ebd 17d8 3dbd
00000230: 9ac0 11bc 9a61 303c 3327 cb39 051a 3f3d
00000240: d3aa 143c 5fe4 0cbd 332a b63a 4a9c 483d
00000250: 0bf3 36bd 8d40 b6bb 679f 67bb 0015 d03c
00000260: 53c5 79bc 38e0 303d b017 a1bc ed7b 0ebd
00000270: 4a7e 983c 600f 1fbd 7ab9 4fbc c058 01bd
00000280: ea4a aabc 002c dbbc 1735 823c ba2d 2cbd
00000290: e88d 17bd a0d9 31bc fabb 52bc c74d 6c3c
000002a0: 4d48 eebb f3ed 4a3d f396 503c b3bf 9b3c
000002b0: 58e6 3bbd 7fbc 2b3d 1aeb 4ebc ba36 aa3c
000002c0: 7322 8d3c 275b c3bc 68b5 4bbd 2f5e 2abd
000002d0: 00bf d13b 8084 da3c 8daf 0ebd 4769 1cbd
000002e0: 4f7a 0ebd bd68 13bd b7ce 19bd 9d55 cc3c
000002f0: 4d99 6c3b 30c7 bcbc ed3e ce3c 6575 19bd
00000300: d71b ee3c c0cd f6bb 2d02 2a3c 3a2f 203c
00000310: 9084 903c e3ce 963c 5a52 ca3b 77e4 46bd
00000320: 10eb 293d abaf 30bd 6048 2d3c e749 ce3c
00000330: a013 1bbd 0d3e 753c 4d13 30bc c0bb eebc
00000340: 3a5c 763c 5a1b 49bc 40d1 303d f3a2 fbbc
00000350: 1a89 6c3c 37c2 f1bc a372 d73c 2d17 683c
00000360: 1de0 cd3c 3a13 e8bc 834c 403d 9788 1f3d
00000370: 1de7 07bd 8f31 2ebd 27c0 f53c 2aee 1b3d
00000380: a02a 3b3c 8705 373d f77b 093d 9abd d839
00000390: ca62 d9bc 2d31 3d3c b309 cbbb 3ab7 793c
000003a0: b017 e6bc 1a86 a33c ed09 db3c 9a2c 483b
000003b0: c03d 5dbc 83a3 c13c 985a 1abd 2a53 4abd
000003c0: b0e5 83bc cd9e 843b 5acc b73b e73d 44bb
000003d0: 80d0 5fbb c3d5 1dbd 588f 0abd 6d03 7b3c
000003e0: 0008 91ba b318 50bb 7a4a d9bc db81 21bd
000003f0: 102b 90bc 9aef ce3c 9044 b13c 6545 4bbd
-0.026105905 -0.0001747787 0.021944767 -0.04808971 0.02591126 -0.006513125 0.046160348 0.04122601
-0.0043860315 0.030537099 0.029682457 -0.0031977356 -0.043908637 -0.029676616 -0.040987164 -0.044095714
-0.04155145 -0.012936187 -0.019975632 0.02658853 -0.0043944777 -0.037873007 -0.013223506 0.00766328
-0.03184868 0.037493926 -0.017053718 0.017577453 -0.034652956 0.0062971236 0.03644326 -0.043348473
-0.047858465 -0.02959757 0.0009803057 0.045535203 0.020575011 -0.0073314193 0.0013188481 -0.02795812
-0.043099828 -0.001732713 -0.014533455 -0.033861168 -0.042491984 -0.048655726 -0.026065433 0.03168809
0.030992437 0.027951444 0.0437887 0.003555143 0.0059216144 0.040376153 0.039310105 -0.021626908
0.040345248 -0.016092628 0.017109264 -0.01569062 0.04364091 -0.041649174 0.03566168 0.0051484765
-0.029074365 -0.004762781 -0.04795858 -0.036489345 0.0087520005 0.006728792 0.025547057 -0.027876735
0.014555174 0.008741486 0.042672265 0.022123856 -0.030631412 0.008033806 -0.041117694 0.0066351118
0.004222566 0.03319001 -0.00047602653 -0.021402812 -0.026708787 -0.044183344 0.02106207 -0.017769003
0.0030780197 -0.040090628 -0.028441792 -0.006278384 -0.043922912 0.024390537 0.026560312 -0.04862212
-0.040179443 -0.012351251 0.010935128 -0.032019533 0.0147501705 -0.03607729 -0.041425616 -0.025350405
-0.0023550987 -0.041507114 -0.027232809 -0.0005374253 -0.038007926 -0.008549756 0.02588193 0.047710087
0.025623417 0.00017771125 0.023419147 0.049982574 -0.008273477 0.015624261 -0.034898102 -0.041976996
-0.0025051774 -0.023796035 -0.0026256144 -0.040877916 0.04971531 0.0017373323 -0.007163352 -0.0056075575
-0.04559023 -0.039602604 -0.010144907 -0.039511926 0.041158088 -0.008130372 0.020901157 0.019564485
0.0035750985 0.014820421 -0.046606373 -0.046348657 -0.008896017 0.0107654575 0.00038748383 0.046655674
0.009073931 -0.03439748 0.0013898074 0.048977174 -0.044665378 -0.0055618943 -0.0035342814 0.025400639
-0.0152448 0.04318258 -0.019664615 -0.034786154 0.018614907 -0.038833022 -0.012678498 -0.03157878
-0.020787675 -0.02675438 0.015894456 -0.042035796 -0.037000567 -0.0108551085 -0.0128622 0.01442284
-0.0072718025 0.049543332 0.012731302 0.019012308 -0.04587397 0.04192781 -0.012629295 0.020778049
0.01722834 -0.023847176 -0.04973355 -0.041593727 0.006400943 0.026674509 -0.034835387 -0.038186338
-0.03478461 -0.035988558 -0.037550654 0.024943167 0.0036102117 -0.023044199 0.02517649 -0.03746547
0.02906601 -0.0075318515 0.010376495 0.009776885 0.017641336 0.018409198 0.006174368 -0.048557725
0.04148394 -0.04313628 0.010576338 0.025181724 -0.037860513 0.014968407 -0.010746789 -0.02914226
0.015036637 -0.0122745875 0.043168306 -0.030717349 0.014436984 -0.029511554 0.02629978 0.014165682
0.02513128 -0.02832948 0.046947967 0.03894862 -0.03317939 -0.04252773 0.029998852 0.038068928
0.011423737 0.044683006 0.033565488 0.00041339995 -0.026536364 0.011547369 -0.0061962246 0.0152414385
-0.028087467 0.019961406 0.026738131 0.0030544163 -0.013503492 0.023637539 -0.037684053 -0.049395718
-0.016100734 0.004047251 0.0056090774 -0.0029944123 -0.0034151375 -0.038533937 -0.03382811 0.015320641
-0.0011065006 -0.0031753003 -0.026524771 -0.03943048 -0.017598659 0.025260735 0.021639138 -0.049626727

fc1.bias f4 [120]
00000000: 07fa 05bc 33b7 d13b d364 35bd 9a19 8d38
00000010: ba3a 213d f8b5 03bd 93c3 2b3d 6fb3 243d
00000020: 4d43 c0bb c07c 14bd b334 7c3c e01b b1bc
00000030: 3d0a 8c3c 6352 203d 7246 1cbd d323 1ebc
00000040: a0f0 063c 4033 003d 0018 7fb9 0058 303d
00000050: 5fdb 27bd 4d89 9ebc 6f1e 1a3d c094 f53b
00000060: cd1e b23c 6df4 133c 9ad9 4bbd 279f e6bc
00000070: 50ba ad3c 67aa ec3b 9d85 cd3c 6d2d 5abc
00000080: 53e0 8f3c 53ab 8bbc 205f 373d c033 383c
00000090: 3023 81bc 4727 08bd daae 253c 3a90 113c
000000a0: 7d57 8cbc 33c8 aaba 3d57 8cbc 927c 05bd
000000b0: cd18 973c e36c 3bbd 73ad 313d 33db b3bb
000000c0: 67fb 99bc cd9e 043d 2d60 d8bc 9f15 023d
000000d0: 4d11 643c 3acf 383c 5a17 393d f717 de3c
000000e0: 200a 033d cd37 38bb cb4f 2d3d bda0 44bd
000000f0: 1a6a c8bb b09d e3bc 874d 3ebc b2ec 093d
00000100: 6746 d2b8 33c2 ee3b 2392 8dbc 4d97 1dbc
00000110: 00a6 3a3b e7fd b33b 8b7d 2b3d cdaa e5bb
00000120: 7acd 933c 1b7f 2a3d 43e7 e43c 9338 593c
00000130: db1b 2abd ea1d 40bd 6d3e d13c 92d6 063d
00000140: 07b0 e7bc 6a9b e9bc 8831 183d 2769 af3b
00000150: 45fe 15bd 7000 0dbd 0d9e 2fbc 0d7d c43b
00000160: 6023 833c e05e 6a3c 2dab ecbc fad4 08bc
00000170: cd1c 93ba cdd3 5b3c 80cf d7bb ca86 313d
00000180: 5050 9f3c 70d4 08bd 20d8 d1bc 8b60 003d
00000190: ed65 8f3c b313 33bb edbc 203c cfc4 49bd
000001a0: 3ae0 7dbc 0320 913c 4dd3 5bbc faeb af3c
000001b0: faf6 15bd aab6 47bd 9b26 473d c2a5 1f3d
000001c0: db15 2c3d e7d1 223d 3b3c 39bd 937a 013d
000001d0: 4057 b73c d766 0ebd a8af 103d 2879 3cbd
-0.008177287 0.006400013 -0.044285607 6.7281726e-05 0.039362647 -0.03215596 0.04193456 0.040210184
-0.005867398 -0.036251783 0.015393424 -0.021619737 0.017094726 0.03914107 -0.03815312 -0.009652096
0.00823608 0.031298876 -0.00024327636 0.043052673 -0.040980693 -0.01935258 0.03762668 0.007494539
0.021743203 0.009030444 -0.049768068 -0.028152062 0.021207005 0.007222462 0.025088126 -0.013316494
0.01756302 -0.017049467 0.044768453 0.011242807 -0.015763849 -0.033240583 0.010112489 0.008884484
-0.017131561 -0.0013029635 -0.017131442 -0.032589503 0.018444443 -0.04575814 0.043378305 -0.005488777
-0.018796636 0.032378007 -0.026413048 0.0317589 0.01392014 0.011279875 0.045188285 0.027111037
0.031992078 -0.0028109432 0.042312425 -0.048004854 -0.006116164 -0.027785152 -0.011615164 0.033672996
-0.00010026694 0.007286334 -0.017281597 -0.009618592 0.0028480291 0.005492914 0.041867774 -0.0070088864
0.018042315 0.041625123 0.027942305 0.013258117 -0.04153047 -0.04690353 0.025542462 0.032919474
-0.028282179 -0.02851649 0.03715661 0.0053531113 -0.036619443 -0.034424245 -0.010718835 0.0059963525
0.016008079 0.0143048465 -0.028890217 -0.008351559 -0.0011223793 0.013417196 -0.006586015 0.043341435
0.019447476 -0.03340572 -0.025615752 0.03134207 0.017504657 -0.0027324974 0.009810668 -0.049259957
-0.015495354 0.01771546 -0.013417077 0.021474827 -0.03661249 -0.048758186 0.0486208 0.03897644
0.04201303 0.03975096 -0.045223456 0.031611037 0.022380471 -0.034766044 0.03532377 -0.04601398

fc2.weight f4 [84, 120]
00000000: 6937 093d 82c2 90bd 3eac bdbb 62c7 8dba
00000010: 18fa 583d 9fa2 953a c77e 35bd c4d5 82bd
00000020: 5c40 3c3d fc19 f43c af78 873d 1f41 823d
00000030: a3ba 86bb d1f4 643d d0c3 1c3c 74fd 75bd
00000040: ecba 7ebd 3a28 74bc 9aab 59bc 5380 853d
00000050: 1127 32bd 5aa1 343d 28b6 4abb 1bb2 4a3d
00000060: f795 a5bd 6d46 4fbd a6d2 403d 321f b83d
00000070: 02c2 9b3d 80ce 1a3d b610 c3bc e7e7 ab3d
00000080: b16a 82bd 5bfc 9c3d b88b 93bd 05fc 9dbd
00000090: f5c6 a0bd 8db7 a63d 09b3 b1bd aa9d ae3d
000000a0: b3b3 8dbd 6526 45bc 7262 4dbb 542d 80bb
000000b0: 788a 93bd f05f 12bd 0217 ac3d 9b68 50bc
000000c0: 445b bb3c 9146 b6bd 25c7 50bd 435e e4bc
000000d0: 7612 5abd 0e12 0ebd 2d7b af3d 62bd 85bd
000000e0: 438f 8ebd e139 193d f8c1 21bc 9eb6 babd
000000f0: 3d89 d0bb 069f 3fbd 25d5 e93c 2983 033d
00000100: 9ec6 6c3d 7df2 a2bd 398b 9bbc ca50 82bd
00000110: 2f38 87bd 62b6 4a3c be6a 07bd 8780 b93c
00000120: 4ca0 ad3d 193c 08bc bb26 813d 97f2 c7bb
00000130: 8c1c 173b e0a9 8a3d de83 9cbc cead 2bbd
00000140: 2991 cabc 9576 a23d 85d4 b5bc 4a72 e5bc
00000150: 7b02 743c a14d 1bbc dfc5 593d d7c9 7c3d
00000160: f1d7 51bc 4a14 e23c fdce 9abc 234a db3c
00000170: 27d9 4ebd c474 e4bc f159 183d 77a1 7b3d
00000180: 1a55 a53c 43cd 87bd e0c9 b33d 36cc 91bc
00000190: 6ca4 0aba 28b3 01bd 9bff 11bd 9558 223d
000001a0: c08d 75bb bcf4 60bd 2f6a 873c 36e8 493a
000001b0: 88e3 86bd ba5b 7cbd c5d9 19bc b6f4 583b
000001c0: 23d2 443d 90c2 59bd 2355 de3c 3511 73bd
000001d0: e74b f9bc 1ff8 743d ee74 b6bd 455e b7bd
000001e0: 88fb 813d d424 ffbc 0da9 133d 5ccc afbd
000001f0: 5c3d aebd 7904 9fbb e24b 7e3c f669 893c
00000200: aef4 21bc 5e39 803d c9a0 863d 78fc aebd
00000210: 5198 b2bc 4557 76bc 49d0 8ebd 32f3 48bb
00000220: a4f7 b6bd 80f0 acbd 6327 1a3d b75b ffbc
00000230: 1c72 b13d 244b d33c 5ab8 563d e9d3 533c
00000240: f400 b03d 9904 fd3c 8fce cfbb 78d1 a93b
00000250: 3655 9d3c 390d 373d 86d3 0a3c 2c26 f7bb
00000260: 9608 59bd 91cb ba3d bded 9abd 274f 64bd
00000270: 104f 80bd 442e 88bd 6561 ff3c 43dc 973d
00000280: 18b2 2e3b a5b8 a23d 57f1 fe3b 14da 893d
00000290: 5075 2cbd 1f87 433d 2fb9 683d b304 453d
000002a0: 8efd b53b f3bd 8b3a 2982 283d 1247 a1bd
000002b0: b205 503c 5487 5dbd 64db d93c 48e9 5a3d
000002c0: 055f b4bd 41ea a6bd 8cd7 793d 44a1 af3b
000002d0: 361d 76bc 1517 253d ea48 2c3d 796a ba3d
000002e0: 932d a9bd f1f1 883c abe3 7abd 341e 6cbd
000002f0: 78ed 163d 18d6 b83d d0a1 9a3d 252f d5bc
00000300: a52d d73c f486 363d 6090 82bd 6647 0dbc
00000310: 8c91 0d3d 11c1 39bd e5d1 2ebd b65c 793d
00000320: 3800 acbd 024d af3b 1e23 863d e384 28bd
00000330: 794e 103d 7f81 59bd 6d92 8fbd 5c7b ac3c
00000340: e7d9 89bc 0145 6d3d 6d34 123d 07c3 abbc
00000350: 979b b63d 1d83 b13d 9c9d 153d eddc b4bd
00000360: ece4 ccbb 9801 8c3d 9014 b03b 943a eebc
00000370: dab7 a23b a422 023d 6ce1 d03b 5c14 813d
00000380: 31cc 7c3d 2782 be3c cceb 6d3d 8cfd c4bb
00000390: 0090 a4bd fab5 f9bb 9765 a43d 6718 e7bc
000003a0: 9640 62bd 6834 4bbc 908b b63d e37b 8b3d
000003b0: e54b 0a3d 37bc 973d 25f2 ab3d 5596 633d
000003c0: dec5 b1bd 9987 7f3b 619e a3bd b87f ae3d
000003d0: eebd 4ebd 2a43 da3c 6814 dcbc 163c 243d
000003e0: 0e1d 2a3d 62f5 993c 61c2 9b3d 5d97 6fbd
000003f0: a189 b1bc 230d a63c 3bc4 f23c 775a 0d3d
0.03350011 -0.070683494 -0.005788355 -0.0010816867 0.052972883 0.0011416263 -0.044310357 -0.06388429
0.045959815 0.029797547 0.066148154 0.06360077 -0.0041116043 0.055897538 0.00956817 -0.060056165
-0.06218998 -0.014902169 -0.013285542 0.065186165 -0.043494288 0.04409919 -0.0030931327 0.04948626
-0.08085244 -0.050604273 0.04707589 0.08990325 0.076053634 0.03779459 -0.02381168 0.08393841
-0.06368006 0.076653205 -0.072043836 -0.077140845 -0.07850448 0.08140478 -0.08676726 0.08526166
-0.069190405 -0.01203308 -0.0031339196 -0.0039116535 -0.07204145 -0.035736024 0.08402826 -0.012720252
0.022870667 -0.08900178 -0.05097117 -0.027876979 -0.053240262 -0.034685187 0.08568416 -0.065302625
-0.06960919 0.037408713 -0.009872906 -0.09116863 -0.0063640163 -0.046782516 0.028544018 0.032107506
0.057806604 -0.07956407 -0.018987285 -0.063630655 -0.06602513 0.012372585 -0.03306078 0.022644294
0.0847784 -0.00831511 0.063062154 -0.006101917 0.0023057787 0.06770682 -0.019105848 -0.0419138
-0.02472742 0.07932774 -0.022196064 -0.028008599 0.0148931695 -0.009478957 0.05316722 0.061715927
-0.012807832 0.027597565 -0.018897528 0.02676875 -0.05050006 -0.02788771 0.03719515 0.06143328
0.020182181 -0.066309474 0.08778739 -0.01779757 -0.0005288783 -0.031664997 -0.035644155 0.03963526
-0.0037468523 -0.054920897 0.016530124 0.00077021436 -0.06586367 -0.061610915 -0.009390299 0.0033104843
0.048051964 -0.053164065 0.027140206 -0.05934258 -0.0304317 0.05980694 -0.08909021 -0.08953527
0.06346804 -0.03114549 0.03604989 -0.085839 -0.08507797 -0.004852828 0.015521022 0.016774159
-0.009884996 0.06260942 0.06573636 -0.08544248 -0.021801146 -0.015035455 -0.06973321 -0.0030662534
-0.089339525 -0.08444309 0.03763522 -0.031171663 0.08664343 0.025792666 0.052421905 0.012928941
0.08593932 0.030885981 -0.0063417624 0.0051824413 0.01920567 0.044690344 0.008473283 -0.0075423922
-0.052986704 0.091208585 -0.07564876 -0.055739548 -0.0626508 -0.066494495 0.031174371 0.074150585
0.0026656445 0.079453744 0.007780235 0.06731048 -0.042104065 0.047736283 0.05681723 0.048100185
0.0055539077 0.0010661468 0.041139755 -0.07874884 0.01269667 -0.054084137 0.026593871 0.05344513
-0.08807186 -0.08150149 0.060996577 0.0053598005 -0.015021613 0.040305216 0.042061724 0.09102339
-0.08260646 0.01671693 -0.061252277 -0.05764599 0.03684756 0.0902521 0.075503945 -0.026023457
0.026266882 0.044562295 -0.063751936 -0.00862298 0.034562632 -0.045350138 -0.04268064 0.06087943
-0.08398479 0.005349756 0.06549667 -0.041142356 0.035231087 -0.053102013 -0.070103504 0.021054916
-0.016827537 0.057927135 0.03569453 -0.02096702 0.08916395 0.08667586 0.03652726 -0.08831201
-0.0062528756 0.068362415 0.005373545 -0.029080667 0.0049657645 0.031771317 0.0063745286 0.06302711
0.06171817 0.02325542 0.0580862 -0.0060116705 -0.08035278 -0.0076205702 0.08027189 -0.028209878
-0.055237375 -0.012402631 0.08913338 0.06810739 0.033763785 0.07408946 0.08395795 0.05556329
-0.08680318 0.0038990735 -0.07989193 0.08520454 -0.0504741 0.026643354 -0.0268652 0.040096365
0.041531615 0.018793765 0.07605434 -0.05849396 -0.021672072 0.020269936 0.029634586 0.034510102

fc2.bias f4 [84]
00000000: e43f 9d3d f87f d9bc e467 163d 9550 613d
00000010: 06a5 68bc 5212 af3d 6969 8f3d c3ba 843d
00000020: b00b babd 5d65 883d 5d2a f2bc 3819 85bd
00000030: 90d5 afbd 70f4 39bc acf9 91bc decb 5bbd
00000040: 5a94 babd a50a 5abd c568 92bc 3a25 aa3c
00000050: 62ec abbd e596 81bc f9f5 893b f7ef 39bc
00000060: 4174 09bc 2dbc b7bd fbf3 80bd ed8e 963d
00000070: b275 aa3c 0f4c 4bbd 3e46 763c 3a47 e2bc
00000080: 77a5 e7bc 010c 423d 112e 7abc 46ca 31bd
00000090: 98fb b4bd 8c96 7f3d d66a 443d 9093 1e3d
000000a0: 51e1 5d3d 9edd a0bb 4ea1 9bbd 104c a83c
000000b0: ea04 88bd ab2c b7bd 3df0 6e3c 84e1 34bd
000000c0: 563e 763d 7273 b4bd f94a 893d dece c23a
000000d0: e10f 81bd 1951 31bc 7084 aa3c 15b1 96bc
000000e0: 5e7f 30bd c2ee ad3d be45 7dbd d24f 9bbc
000000f0: 1987 40bd f8b4 acbd 20cd dfbc 28f6 d43c
00000100: 6549 30bd f8e1 9ebc 4c05 b13d 7743 9c3a
00000110: 822e 80bd a2ed 113d cce5 6abd 282d f43c
00000120: 241e b33d ac1c 9dbd 12d4 88bd a8e3 93bd
00000130: 3494 1bbd 763b b4bc a7df 5a3b fd11 99bc
00000140: 50a9 ebbc 8505 b4bd 9ab4 38bd 4906 a0bd
0.07678202 -0.026550278 0.03672017 0.05500849 -0.014199501 0.08548416 0.07002527 0.064809345
-0.090842605 0.066599585 -0.029561216 -0.06498951 -0.08585656 -0.011349782 -0.017819248 -0.05366122
-0.09110327 -0.053232808 -0.017872224 0.020769704 -0.08394696 -0.015819022 0.0042102304 -0.011348716
-0.0083895335 -0.089714386 -0.062965356 0.0735148 0.020808075 -0.049633082 0.0150313955 -0.027621854
-0.028277142 0.04737473 -0.015269772 -0.043405794 -0.0883705 0.062399432 0.04795345 0.038714945
0.054169957 -0.0049092313 -0.07599126 0.020544082 -0.06641562 -0.089440666 0.014583644 -0.04416038
0.060118042 -0.08811082 0.06703753 0.0014862677 -0.06301857 -0.010822558 0.020815104 -0.018394986
-0.043090217 0.08492805 -0.06183409 -0.01895896 -0.04700384 -0.084329545 -0.02731949 0.025996283
-0.043038744 -0.01939486 0.086435884 0.0011921962 -0.06258871 0.035627015 -0.057348058 0.029806688
0.08745983 -0.07671484 -0.06681074 -0.07221156 -0.037983134 -0.02200101 0.0033397467 -0.018685335
-0.028767258 -0.08790115 -0.04509411 -0.07813699

fc3.weight f4 [10, 84]
00000000: bba4 843d 3b0e 85bc 3f3d d13d f888 8b3d
00000010: 3b08 cabc e738 0b3d f711 553d 5fda ddbb
00000020: 4a85 9fbd 963a a9bd 9006 d53c 219a 943d
00000030: 3596 d63d 2005 8c3c 4349 cabd eaee cb3d
00000040: f2ac 893d e85c 513d 6004 c53d 29a3 5ebd
00000050: d2dd ad3c 59bd 18bd 4e3b 59bb 79d1 abbd
00000060: 056f ae3c ad52 9d3d 2732 6f3d 2350 99bd
00000070: a434 88bd e18b 503d 2ce9 2c3d 6ceb c7bd
00000080: de82 f7bc 528e 9fbd 014e df3d 4d31 113d
00000090: 4c53 97bd 7de8 b13d 433c 4f3a 9218 39bd
000000a0: 83a8 c23d 22b0 a43a dccf aebd 04b4 d63d
000000b0: 99a5 dbbd fa0f c2bd 4e09 d63d 0671 bf3d
000000c0: d091 bb3d c409 cc3d 961b d9bd ed94 873d
000000d0: 89d5 a3bd 5231 c73c 0f4f d3bd f802 753d
000000e0: 2548 ca3d 9965 a73d 36a0 033d 9454 77bc
000000f0: 3d09 a0bc 9e6f a4bd 15e4 d6bd bd0f acbd
00000100: d081 b5bd 2032 bcbd 6261 b8bd eb24 c73d
00000110: 8141 37bd 2546 b43d 2506 0d3d 1332 5c3d
00000120: c42f 02bc e16e 863d 4c0c 93bd b6d8 6dbd
00000130: ad95 9bbb f683 963d a819 213c 1305 a7bd
00000140: c1ea 89bd 29c8 a53c 73af 253c 202e 4d3d
00000150: fe0f 5b3d 3833 bebd 7210 dfbd e931 28bd
00000160: 2560 46bd f71e c73d 02b4 393d 0d32 f5bb
00000170: d657 133c 9f2d 2ebd 6e17 fdbc b845 083d
00000180: 86b4 dd3d e7cd 8b3d 7f10 853c a612 54bb
00000190: f596 9b3c c5f2 80bd 4dcb 133d 6b40 543c
000001a0: acb8 90bd 6972 b4bd 7b4e 91bd 7ec9 30bd
000001b0: d29f 24bd ec46 48bd 7e22 873d 5a62 a6bd
000001c0: 98f2 e6bc 3ea7 d8bd d5e9 a63d 9cf9 15bd
000001d0: 63ef 80bd b5ce 70bd 2801 63bd 16f6 20bc
000001e0: 1561 483c 2c32 5f3d 6e2b cfbd aa53 cfbc
000001f0: 3dee 89bd 7edc 1a3d c814 5bbc 0475 b2bd
00000200: 50bc b13c 5419 d13d ea50 803d 8542 43bb
00000210: 0c46 70bd 54df 5f3d 65f1 36bd 1830 31bd
00000220: a65d d6bd b58e b93d 4074 4abd 54f2 d43d
00000230: 0a43 babd 3a1b 903d 5881 76bc cdbf bb3a
00000240: 042d bf3d 653d 8e3d c82c df3d 89a4 d3bd
00000250: b358 d93d fe10 26bb 5dfb 9a3d e83a 8fbd
00000260: 3827 7fbc c33a 89bd 576d a1bd a7b3 c0bd
00000270: 97db 8fbd 3aa8 603d cc55 52bd c3a9 98bc
00000280: d290 dc3d d22d b43d 13e2 f4ba 4490 9ebd
00000290: b759 02bd ac32 bcbd 6598 d43d 8c32 7c3c
000002a0: 1520 133c 6dcc 6c3d 8070 093d 4297 16bd
000002b0: 74e2 8e3d bc2b 6dbd a102 08bb 7c1d 373d
000002c0: 4d2b a23d e92a ad3d b194 933d 48ac 81bd
000002d0: 2768 b7bd d42e 463d 9711 ad3d 29c9 a93d
000002e0: fa18 6ebd f173 18bc a4b7 9abb acf6 9cbc
000002f0: cc26 863d 6ae6 84bd 5345 cfbd b148 fd3c
00000300: c832 5d3c 4ad1 ba3b becd 3fbd 1253 9b3d
00000310: 4d25 a6bd afca d53b 9a2c 313d 09d9 2d3d
00000320: be48 a13d d832 993d 0764 bfb9 c149 843d
00000330: 0d38 f53b df9c ca3d 1ccb 473c 7d60 2b3c
00000340: 0e20 dbbd 5929 6d3d a540 26bd feb0 0a3d
00000350: 4fe2 a53d b865 62bd 915e 22bd 36c0 d5bc
00000360: 0186 863c d6fc 61bc 3f1b 753c 4169 c33b
00000370: 1b4f bfbc f10c e73c a2bc a2bd d290 53bd
00000380: 8af2 663d 560c bd3c 5688 8a3c d8a9 a1bc
00000390: d513 87bd 3ef1 bf3c df3a d73c 081f 8f3c
000003a0: 1849 423b 4f4e 643d e2f0 a9bd b336 68bd
000003b0: c70a b63d 8b2f 79bd 0d48 d6bd e4b3 7dbd
000003c0: c19d abbd 2ec1 2e3d e9c6 be3d fb26 78bd
000003d0: 8a36 703d 99d9 cd3d 03d0 b63d eb07 acbd
000003e0: ef8c cb3c fe23 8d3d ef52 4dbd cb44 b3bd
000003f0: 742a 45bc 2e43 953c 76a3 d0bd 3615 50bd
0.06476732 -0.016242137 0.1021676 0.06813234 -0.024662128 0.033989813 0.052019086 -0.0067704166
-0.07789095 -0.082631275 0.026004106 0.0725596 0.104778685 0.017092288 -0.09877255 0.099576786
0.0672244 0.051113993 0.09619975 -0.05435482 0.021223936 -0.03728995 -0.003314692 -0.08389563
0.021293173 0.07681785 0.05839744 -0.07485988 -0.066506654 0.05091465 0.042214558 -0.097617
-0.03021377 -0.07790817 0.1090355 0.035447408 -0.073889345 0.08686922 0.0007905403 -0.045189448
0.09504797 0.0012564699 -0.0853574 0.10483554 -0.107249446 -0.094757035 0.104509935 0.093477294
0.09158671 0.099628 -0.10600965 0.06620202 -0.07999713 0.02431551 -0.103178136 0.059817284
0.09877042 0.08173675 0.03213521 -0.015095849 -0.019535655 -0.08029102 -0.10492722 -0.08401439
-0.088626504 -0.09189248 -0.09002949 0.097238384 -0.044740204 0.088024415 0.034429688 0.053758692
-0.0079459585 0.06564117 -0.0718008 -0.058068 -0.0047480674 0.07349388 0.009832777 -0.08155265
-0.06734229 0.020237045 0.010112631 0.050092816 0.05348205 -0.09287113 -0.108918086 -0.041063223
-0.048431534 0.09722703 0.045337684 -0.007482773 0.00899311 -0.042523976 -0.030894961 0.033269614
0.10825448 0.06826382 0.016243218 -0.0032359748 0.01899288 -0.062963046 0.036082555 0.012954812
-0.07066473 -0.088108845 -0.07095047 -0.043160908 -0.04019148 -0.04889576 0.06598376 -0.08124228
-0.02819185 -0.10578774 0.08150069 -0.036615 -0.062956594 -0.05879088 -0.055421025 -0.009824296
0.012230177 0.054491207 -0.101157054 -0.025308449 -0.067348935 0.037807934 -0.013371654 -0.08713725
0.02169624 0.10209909 0.06265433 -0.0029794287 -0.058660552 0.05465634 -0.044663806 -0.043258756
-0.10467081 0.09060422 -0.04942727 0.10397783 -0.09094818 0.07036443 -0.015045486 0.0014324129
0.09334758 0.06945304 0.10897213 -0.10334117 0.10612621 -0.0025339718 0.07567475 -0.06993657
-0.015573315 -0.06700661 -0.07882183 -0.09409266 -0.07024305 0.054847933 -0.051351354 -0.018635636
0.1076981 0.08797802 -0.0018683098 -0.0774236 -0.03182384 -0.091893524 0.103806295 0.015392911
0.008979817 0.057812143 0.033554554 -0.036765344 0.06976786 -0.057903036 -0.002075352 0.044705853
0.07918415 0.0845545 0.07206095 -0.06331688 -0.08955412 0.048384503 0.084506206 0.082903214
-0.05812929 -0.009304986 -0.0047215987 -0.019160591 0.06550369 -0.064892605 -0.101206444 0.030918451
0.013500877 0.0057012187 -0.04682707 0.07584204 -0.08112583 0.006524406 0.043255426 0.04244331
0.078752026 0.07480401 -0.00036504885 0.0645938 0.0074834884 0.09893202 0.012194421 0.010460016
-0.10699473 0.05790076 -0.040588994 0.0338602 0.080998056 -0.055272788 -0.039640967 -0.02609263
0.01642132 -0.013793191 0.014960109 0.005963475 -0.02335315 0.028204413 -0.07946135 -0.051651783
0.056383647 0.023077171 0.016910713 -0.019734308 -0.065955795 0.023430463 0.02627319 0.017470852
0.0029645618 0.055738743 -0.08297898 -0.05669279 0.08888774 -0.060836356 -0.10462961 -0.061939135
-0.083796985 0.0426647 0.09315283 -0.06058405 0.058645763 0.10051269 0.08926394 -0.08399948
0.024847476 0.068916306 -0.05012792 -0.087533556 -0.012034047 0.01822051 -0.10187428 -0.05080148

fc3.bias f4 [10]
00000000: f05e 63bd b505 a63d 32d4 a2bd 43d6 96bd
00000010: b8b4 85bd 35ae 0fbd 7972 f7ba 04cc a5bd
00000020: 6b07 703d b15f 973d
-0.05551046 0.08106557 -0.07950629 -0.07365086 -0.0652861 -0.035078246 -0.001887872 -0.080955535
0.058600824 0.073912986
