ai/practice/pytorch/load_save_entire/model.pth (torch, 253340 bytes, 10 tensors)

weight f4 [6, 3, 5, 5]
00000000: 74e3 ed3c 2d56 19bd 24b0 28bd 3c55 bd3d
00000010: 966e ab3d 9d34 9abc 4daa 703d a2e8 7d3c
00000020: 751c a23c bbfe 8a3c 3288 39bd 98b8 ae3c
00000030: 2819 d73d c8a8 d93d 428d d3bd 3703 9e3d
00000040: ee5a bfbc be6a ba3d 4d6d a13d 9d5e 873c
00000050: b0c2 8a3c 41d2 ab3d 82c3 063c f32e ff3b
00000060: 11ac a43d e313 35bd 025a 113d bf5c 67bc
00000070: 0998 963d f2f2 ab3c 2411 0ebb d88c 2abb
00000080: f1c8 dd3c dbdc bcbd 4882 653d c6ed 873d
00000090: c956 173d f3b5 943d 90fe 9dbd f2be 2eba
000000a0: 560c 923c 604a 873d 8034 dc3d 53f2 583d
000000b0: 2269 8fbd 3afc 66bd f95f a1bd 5a6a c63d
000000c0: cb2b c93d c353 7d3d 2512 8e3d 41b6 843d
000000d0: 4fdc ac3c 1e41 c0bd 91ea 553d bbd0 693c
000000e0: ce89 3c3d 75c5 813d bd4e a43b bbd0 ce3d
000000f0: 1511 d7bd 6d9b 8b3d 1918 a53d 6b90 d43b
00000100: 2a75 773d b31d a73d 91bd dd3d 1013 49bd
00000110: 879d 3abd 8c48 813c 0d12 1cbd deb0 0d3d
00000120: cd39 dbbd 5cea acbd da85 9f3d 8df4 563d
00000130: dcb4 a1bd 7eed d2bc af0c 9c3c 1f62 79bc
00000140: 7634 ae3d 829f 11bb cad3 c7bd d7c3 ee3a
00000150: 5d3c 29ba 91fb af3c 38cb b7bd 8909 ba3c
00000160: a7a9 be3c aa33 73bc aee6 513b 6eb9 e5bd
00000170: 895e ac3b 67f3 e3bd 39d4 14bd aa21 d23d
00000180: 92d0 bfbd fc0b 5f3d 3856 413c 7609 893d
00000190: 87df cf3d 2088 a5bb 0e8a f63c f8d5 d03c
000001a0: 9d7b 9abd b42e 99bd 214e 9ebd aff4 c73c
000001b0: 8fe2 c5bc 6693 473d 054a 1fbb cdb3 56bc
000001c0: ced7 05bd 45b5 b53d 2ca5 be3d 9f9b d2bb
000001d0: ddc5 a23d 7c12 58bc 2e4f 493d c4f7 62bd
000001e0: 95e0 a5bd 29b6 8cbd 874d cbbc 1c4a 93bd
000001f0: 7243 3a3d 3dcc 1fbd 0d7a e6bd 9682 d5bc
00000200: 7820 8c3d 2cce dbbc f42b b2bd f7b8 3f3d
00000210: 99e5 253c 691f e4bd 4540 81bd f08a 96bb
00000220: 93cd 1d3d 33a2 77bd 11f2 e63d f69f 2dbd
00000230: 04ce 243d 07fc 9b3c cd21 8c3d 93ee b73d
00000240: 7658 6bbc 1c75 35bd 3e30 55bd 0a7c d03d
00000250: d03c 05bd 4b0b 9e3d 2187 e83d 3b9c ef3c
00000260: ce50 80bd 17ed 74bd ad1c 833d f6e9 193c
00000270: 7803 bf3d a385 b3bd 9e94 edbc 8cde 4f3c
00000280: b1ce 6fbc 23d5 893c e235 b5bd bc4f ba3d
00000290: a5e6 d63d 1e1d 55bc d67e 8a3d 4850 953a
000002a0: 1f14 5b3d b8d4 9dbd d556 203c 6fee e93d
000002b0: c7e4 bd3b 198a dd3c 5592 a4bd 9c5f 01bd
000002c0: 12fd 01bd ff08 b73c d52e 9d3d e57c 7a3d
000002d0: 2f3d b2bd 9d57 a5bd 99e2 f4bc bec4 d5bd
000002e0: 4204 98bd 8d18 20bd b31c df3d 53dd 073d
000002f0: 0788 863d 4351 253d e6fc c83d 626c 1b3d
00000300: 8e8d 193d 8b95 953d 5d1b f13c f33a 1f3d
00000310: 5acb 813d 0892 d43b a5f7 3c3d 8b2c 793d
00000320: aad4 c83c 2b5c 953d da71 163d 5e20 3bba
00000330: da25 983d 1bca 3cbd d81d 22bd 4199 d73d
00000340: 82e0 b9bd 87f3 b33d b289 96bd 5f96 0c3d
00000350: 8b8a c5bd a90f e53d 8189 cfbc 172a b6bd
00000360: c01e b13c 2cba bc3c 3a27 e23d 2645 35bd
00000370: 968c 9a3d ed7a eabd 1dd3 aa3d 4214 dcbd
00000380: 57e0 cebb 977d 1a3d 29b3 6dbc 3066 f0bc
00000390: ff04 ec3d a994 683d 88e7 dbbd 4f32 eabd
000003a0: e20a d4bd 77f9 c83d 596e 333d c421 73bc
000003b0: b8bb 67bc d2ed 303d f8c4 9dbc 4d4e 993d
000003c0: 2b7a 3d3d fc44 e63d 5c61 bcbd e2ca ef3b
000003d0: 6a99 4d3d 46c4 81bb 379c 913c 99f6 a13d
000003e0: f4f2 e43d 41f9 08bd 81f5 b13d db28 d3bd
000003f0: 76cc e1bd 5885 14bc a756 68bd 2c09 183d
0.029039122 -0.0374357 -0.041183606 0.09244773 0.08370702 -0.018823916 0.05875616 0.0154973585
0.01978896 0.016967168 -0.0452959 0.021328256 0.10502845 0.106278956 -0.10329677 0.07715457
-0.023358788 0.09102391 0.078821756 0.016524607 0.016938537 0.08389712 0.008225324 0.007787579
0.080406316 -0.04420842 0.03548623 -0.0141212335 0.07353217 0.020989869 -0.0021677697 -0.002602389
0.027073355 -0.09221812 0.05603245 0.066371486 0.036948 0.072612666 -0.077145696 -0.00066660263
0.017828148 0.06605983 0.10752201 0.052965473 -0.07002474 -0.056392886 -0.078796335 0.09688254
0.09822806 0.06184746 0.069370545 0.06480075 0.021101145 -0.0938742 0.052225653 0.014270957
0.04602986 0.0633649 0.005014269 0.10098406 -0.10501305 0.068167545 0.08061237 0.0064869425
0.06041447 0.081599616 0.108271725 -0.049090445 -0.045560386 0.015781663 -0.038103152 0.0345925
-0.10704384 -0.08443138 0.07789202 0.052479316 -0.07895824 -0.02574801 0.019049017 -0.015221148
0.085061 -0.0022220318 -0.097571924 0.0018216324 -0.0006455833 0.02148226 -0.08974308 0.022709625
0.023274256 -0.014843861 0.0032028365 -0.112170085 0.005260293 -0.1113041 -0.036335204 0.10260327
-0.093659535 0.05445479 0.011800341 0.06691258 0.10150056 -0.0050516278 0.030095126 0.025492653
-0.075431086 -0.07479611 -0.07729746 0.024408666 -0.024155883 0.048724554 -0.0024305594 -0.013104391
-0.03267651 0.08872465 0.09308848 -0.006427243 0.07947896 -0.013188001 0.049147777 -0.05541207
-0.08099476 -0.06870682 -0.024817241 -0.071918696 0.045474477 -0.039013136 -0.11253748 -0.026063245
0.068421304 -0.026831709 -0.0869979 0.046807256 0.010125541 -0.111388035 -0.063110866 -0.0045941994
0.03852613 -0.06045742 0.11276639 -0.04238888 0.040235534 0.019041074 0.068423845 0.08981051
-0.014364352 -0.044301137 -0.05204796 0.101799086 -0.0325287 0.07716998 0.11353899 0.029249301
-0.06265412 -0.05979642 0.06401954 0.00939416 0.093268335 -0.087657236 -0.02900153 0.012687337
-0.014636681 0.016825264 -0.08848168 0.090972394 0.10493211 -0.01300743 0.06762473 0.0011391724
0.053485986 -0.077065885 0.009786327 0.11422431 0.0057950947 0.02704339 -0.08035723 -0.03158532
-0.031735487 0.022343157 0.07674948 0.061154265 -0.08703076 -0.080733515 -0.029893206 -0.10437916
-0.07422687 -0.039085913 0.10894146 0.033170056 0.06568914 0.0403607 0.098138615 0.03794516
0.037488513 0.07303914 0.029431993 0.038874578 0.06337614 0.006487135 0.04613461 0.060833495
0.024515469 0.0729297 0.03672967 -0.0007138307 0.074290946 -0.04609118 -0.039579242 0.10527278
-0.090760246 0.087866835 -0.07350482 0.034323093 -0.096455656 0.111846276 -0.025334122 -0.08894747
0.021621108 0.023037992 0.11042638 -0.0442554 0.07546346 -0.114492275 0.08341048 -0.10746051
-0.0063133645 0.037717428 -0.014508047 -0.029345602 0.115243904 0.0567824 -0.107375205 -0.11435377
-0.10353638 0.09813207 0.043806408 -0.014839593 -0.014143877 0.043195553 -0.019258961 0.07485638
0.046259087 0.112436265 -0.09198257 0.0073178867 0.050195135 -0.003960165 0.017774684 0.07908363
0.11179152 -0.033440832 0.08689404 -0.10310527 -0.11025326 -0.009064995 -0.056723263 0.037118122

bias f4 [6]
00000000: 905d 693d 1968 ecbd ba0c 62bd e939 513d
00000010: dec1 e53d b047 883c
0.056973994 -0.115432926 -0.05518792 0.051080618 0.11218618 0.016635746

weight f4 [16, 6, 5, 5]
00000000: d01a 093d 8e10 4b3d d6b5 8a3d 1fa6 b7bb
00000010: 9e38 713a e42d 913d 2979 a2bd 6c78 08bb
00000020: cc03 a03c 5e34 993d e23f 133d 3619 67bd
00000030: b394 8bbd cd0a 683d 2375 823d 1053 a2bd
00000040: e6a0 76bd 7e0f 283b 6b13 9d3d 9c69 f1bc
00000050: 034f a23d 74a0 243b b31c 6ebc 9418 9e3d
00000060: 74ef 973d 105e 2dbd 3b89 303d 7f9a 9fbd
00000070: f64d 533d 91f9 c4bc 2f13 9e3d 751d f0ba
00000080: 90e9 1dbc aa89 523d 86a7 bd3c d765 a03d
00000090: 528f aabc fddd bf3c 27e1 3c3d f765 a03d
000000a0: 2df5 ccbc b3f4 413d 38c4 86bd 8727 9a3c
000000b0: 966f 1bbd 1051 22bc cc02 7dbc 15ec 32bd
000000c0: 2b6e 813b bbea 42bd 8491 ca3c 0970 e2bc
000000d0: ec3b bbbc a385 dc3b 86c0 a63d 2169 563d
000000e0: 1d64 173d 5d16 cdbc efa7 50bd 1664 f03b
000000f0: 26f8 e9bc 9c4b a0bd 8abd ef3c c152 9e3d
00000100: 4b49 673d 9197 03bd d60e dcbb 7ec8 4c3d
00000110: 95f3 353c 54fc 553d 989b 953d fe5d 483c
00000120: e43f babb dfe6 5bbc 9989 2b3d 39e9 9fbc
00000130: f86f 413d 0df9 66bd 1fcd 453c b820 a7bd
00000140: ba99 85bd 5d7f 01bd 5572 b23a fa47 8c3d
00000150: c2e2 ab3c 9c5c 6ebd f926 38bd b50d 42bd
00000160: 4dee 10bc 409e 363d a139 633d d8c6 fab9
00000170: 41cf 3c3d cf1e 4e3d 4051 5dbd d3e6 b53c
00000180: c97c aabc 601b 62bd 1e27 b4bc a088 e0bb
00000190: 9fce 87bd adae 4fbd 6f3c a13c 3ab5 643d
000001a0: e126 333d 94ce 103d 0853 cd3c 9bcc 86bd
000001b0: 7f11 183d ab96 633d e49d 48bd 1fb3 783d
000001c0: 10a4 393d d581 43bd c585 77bc 56e6 bf3c
000001d0: b80b 06bb 51ad 90bd 89c5 22bd 229e cf3c
000001e0: 567e 8bbd b898 dab8 5bd5 c1bb 2c8e 363d
000001f0: 2bf3 903d 5a95 a1bd 66ce 30bd c020 87bd
00000200: 3043 9fbd c4a6 713c 7be0 98bb 6a36 d7bc
00000210: d972 f7bc 1bf2 bb3c af8e 483d a40b 2bbd
00000220: 3bda 443d 62b7 fbbb e0c0 11bc 7423 1ebc
00000230: b59d 13bd a9d3 2f3d 6a50 d03b b1b3 703b
00000240: 29a9 c9bc 6d01 60bd bbf3 973d 3dc1 91bd
00000250: 3fb6 b23c bb77 a6bd d299 1c3b 5f55 a2bc
00000260: f412 243d ec32 3bbd 5145 813d 6361 89bd
00000270: 08cb 4bbc e5b8 4bbd f6f5 8f3b 6c29 af3c
00000280: 7179 f2bc e94f 0bbd 4ff5 a33d 28f8 48bd
00000290: 8b21 f5bc 5901 323d 201b 6d3d 1c13 2ebd
000002a0: bdbb 833c 5ab0 30bd a82e df3c eede 9c3d
000002b0: 2480 91bd 768a d13c 17d4 a1bd 321d 0c3d
000002c0: eef2 953d e01c a4bc f639 1f3b f1b5 223c
000002d0: 52cb ec3a 4065 0b3d 91fd 3bbd 2bb5 bebc
000002e0: e3db 52bd 5b70 383d bfa7 11bd e8a5 263d
000002f0: ae2c 693d 0231 823d f1d5 a83c 43c6 7b3d
00000300: eff4 9f3d 1cb1 92bc 993b 4dbb 31b4 6b3d
00000310: 319b 113b bedc 6c3d e74f 9fbc 16bb b43c
00000320: e31c 3cbd 476e f73c a04c 23ba fc72 a63d
00000330: ecbd 103b 4fe1 a33b cd4d 5dbc 12f6 923d
00000340: a973 de3c 1c90 463d aa61 32bd b85b 603d
00000350: edff 0cbc e606 66bd cbc5 953d f0b1 e3bb
00000360: 6a44 95bd a75b 933d c34a 283d cf9c 54bd
00000370: fb80 9fbd 1147 e7bc 9e7d 843c f1b2 5bbd
00000380: 6c34 893d dfdc 733d f821 0b3d e1b0 213d
00000390: 0671 16bd 089d 6e3d d2f7 3b3c 6403 063d
000003a0: 9c3e 9abd 0caf 6a3c 94ea 1fbd 8b91 e3bc
000003b0: cd37 943d 4654 0abc 997f 843c 979c 93bd
000003c0: 7980 303d 99ba a7bc 9bee 3cbc 091f 92bd
000003d0: 6229 233d be9f 57bc a79a 723d 0c35 2bbd
000003e0: fed5 93bd ce7e f53c f60e 8dbd 63b6 2dbd
000003f0: b6e8 543d 2e8a 96bd f091 093d 0f05 8cbc
0.033472836 0.049576335 0.06772964 -0.00560452 0.0009201857 0.07088831 -0.07933266 -0.002082373
0.01953306 0.074806914 0.035949595 -0.056420527 -0.068154715 0.056650925 0.06369998 -0.07925999
-0.06021204 0.0025644 0.07669719 -0.029469304 0.079252265 0.0025120052 -0.01453321 0.07719532
0.07418719 -0.042326033 0.043099623 -0.0779314 0.05158802 -0.024044784 0.07718503 -0.0018319326
-0.009638205 0.051400818 0.02315117 0.078319244 -0.020820294 0.023421282 0.04611316 0.07831948
-0.025019253 0.047352504 -0.065803945 0.018817676 -0.037948214 -0.009907022 -0.015442561 -0.043682177
0.0039499006 -0.047587138 0.02472759 -0.027641313 -0.022855721 0.006729798 0.0814219 0.052346352
0.03696071 -0.025035078 -0.050941404 0.00733615 -0.02856071 -0.07826921 0.029265184 0.07730628
0.056466382 -0.032126967 -0.006715636 0.04999589 0.011105438 0.052242592 0.07305068 0.012229441
-0.005683886 -0.013421743 0.04187927 -0.019520389 0.047225922 -0.056389857 0.01207283 -0.081605375
-0.06523462 -0.031615604 0.0013614396 0.06849666 0.02098215 -0.058193788 -0.044959042 -0.047376353
-0.008845878 0.044584513 0.05547488 -0.00047831866 0.04609609 0.05032235 -0.054032564 0.022204792
-0.020811455 -0.055201888 -0.021991309 -0.0068522245 -0.06631207 -0.050703693 0.019682137 0.055836894
0.04373825 0.03535326 0.025064006 -0.06581994 0.03712606 0.05556361 -0.0489787 0.0607177
0.045322478 -0.04773124 -0.015107577 0.023425262 -0.0020453762 -0.070643075 -0.039739165 0.025343958
-0.06811206 -0.00010423496 -0.0059153265 0.04456918 0.070776306 -0.07889815 -0.043165587 -0.065980434
-0.07776487 0.014749233 -0.004665432 -0.026271064 -0.03020613 0.022942593 0.0489642 -0.04175915
0.048059683 -0.007681773 -0.008896083 -0.009652007 -0.036039073 0.042926464 0.0063572424 0.0036728198
-0.024616795 -0.05468886 0.07419535 -0.071169354 0.021815417 -0.081283055 0.0023895395 -0.019816099
0.040057138 -0.04570286 0.06312049 -0.06708028 -0.012438543 -0.049736876 0.0043933345 0.021382056
-0.029598923 -0.034011755 0.08005773 -0.049064785 -0.029923221 0.043458316 0.057887197 -0.042498693
0.016080732 -0.043136932 0.027243927 0.07659708 -0.07104519 0.025578719 -0.07901781 0.03420753
0.07321726 -0.0200333 0.0024296022 0.0099310735 0.0018065965 0.034032106 -0.045896117 -0.023279747
-0.05147923 0.045029026 -0.035560366 0.040685564 0.056927375 0.06357004 0.020609828 0.061468374
0.07810389 -0.017906718 -0.003131604 0.05754489 0.0022217745 0.057827704 -0.01944728 0.022061866
-0.045925986 0.030203952 -0.00062293746 0.081274 0.0022085859 0.005001224 -0.013507319 0.071758404
0.02715476 0.048477277 -0.04355017 0.05477497 -0.008605939 -0.056158923 0.07313117 -0.006948702
-0.072884396 0.07195216 0.041086923 -0.051907357 -0.07788273 -0.02823213 0.01617318 -0.05363745
0.06699452 0.05953681 0.033967942 0.039475325 -0.03672888 0.058255225 0.011472659 0.032718077
-0.07531473 0.014323961 -0.03904207 -0.027779361 0.07237206 -0.008442944 0.016174125 -0.072076015
0.04309127 -0.020474719 -0.011531497 -0.07134826 0.039834388 -0.013160644 0.05922952 -0.041798636
-0.0721855 0.029967692 -0.06887619 -0.042410266 0.051979743 -0.073505744 0.033586442 -0.017092256

bias f4 [16]
00000000: 2725 98bd 0207 fabc 35be 25bd fd29 473d
00000010: 2a29 81bd bcd8 f1bc ed8d e93c 897f 893c
00000020: 60c5 ac3c b956 623c 1697 a03d 4546 a03d
00000030: 61f1 013d 6586 99bd aec3 1d3d 2992 c1bb
-0.07428961 -0.03052092 -0.0404646 0.048624028 -0.063066795 -0.029522292 0.028510058 0.016784446
0.02109021 0.013814622 0.07841317 0.07825903 0.031724337 -0.07496337 0.038516693 -0.005907316

weight f4 [120, 400]
00000000: 338d ea3c babb 65bc 823d 2fbd f836 493d
00000010: 4f79 2dbd 5dc2 c3bc ada3 35bc 8d9d bcbc
00000020: da9f adbc 5087 973c 73df 91bc 5da7 89bc
00000030: b0ac fb3c a02d fdbc 40fe 443d e0c0 053c
00000040: cd6a 0abc a098 25bd 5320 203d 3353 19bb
00000050: 33b8 bdba cd17 cfbc e51a 1bbd f05a 87bc
00000060: c0ba 153c 75ea 05bd cd6b b33b 432b 1abd
00000070: 80f4 5bbb 028e 343d 0f94 0dbd a72d 83bc
00000080: cd56 ffbc 9a70 c9bb 7dd5 9a3c ad6c 70bc
00000090: 6772 903b 871d 1d3c a386 eb3c cd0b 0e3d
000000a0: d513 35bd 70c5 de3c 479b f3bc c785 9ebc
000000b0: fbb8 0dbd b70f 093d 53ac 833c a0ab 04bc
000000c0: f3a1 aebc 3333 eab9 0013 2cbb 20f6 67bc
000000d0: a76d 59bc cafc dfbc 334f 82bc e70f 89bb
000000e0: 1d77 2e3d 9791 a73c cd40 3fba 5fdb 0b3d
000000f0: a7d2 01bc 0de7 433d e732 92bc 0dfe cd3c
00000100: 0b32 03bd 1dae adbc c51b 193d 63d8 f8bc
00000110: cd8b 643c 7a14 d13c 17ff b5bc 37cc 803c
00000120: 984f 14bd 6775 343d bafc 243c cd7a febb
00000130: df9d 143d 13c4 36bd f0ef c7bc 8771 363c
00000140: 83d2 023d 6382 3abd ff67 263d 8ffd 0b3d
00000150: caf2 bcbc 5af2 383d da59 f33c 857b 29bd
00000160: d36f d7bc 6729 e3ba db11 2cbd 0db1 5d3c
00000170: baae 9f3c 0088 423b 93ce d6bc 879b 70bc
00000180: 77e4 eabc e5d1 443d bd43 9e3c a38f 943c
00000190: 67c6 3f39 f0f3 e23c e7a5 30bd a375 45bd
000001a0: 3a43 143c e53f 07bd 830a f03c 057a 423d
000001b0: b382 143b 3f7c 38bd 9dc7 3cbd e51f 0dbd
000001c0: ea0d b63c c787 133d 5342 f43c 55e3 3dbd
000001d0: bfa2 00bd e796 323d 00d0 45ba 20ed 57bc
000001e0: 4fed 023d 8ad6 393d 5a27 193c 9de7 3cbd
000001f0: ea4b e3bc 73cd c1bc 1dc5 2cbd 4dc1 99bb
00000200: 0001 b13b c7fc 33bc f0f3 a1bc 734e 113d
00000210: 279c 073c 68f5 17bd adc6 3f3d 9ade cc3b
00000220: 4a3f e53c ca01 97bc 7074 1ebd ba32 b83c
00000230: 6dda 1b3c 1748 9a3c 83d9 01bd 0098 0e39
00000240: 2a85 d73c 3d30 97bc 006f fc3c 6ff6 23bd
00000250: 5d72 9d3c 0716 233c 9a00 c23a 0040 85b8
00000260: a2d4 1c3d 6d9b 4f3c a72a 533c e796 003d
00000270: 6d26 78bc 8a42 0fbd a349 adbc 284b 1f3d
00000280: 3349 a33a 37cd 3bbd 1718 963c 636e ec3c
00000290: 3dea 27bd eb39 34bd 43cd c1bc 338f 5e3a
000002a0: e7eb d9bc b390 dfbb 9dce 3c3d ea1e eebc
000002b0: fa3a 38bc e7fc a1bc 3313 fcb8 bd81 b63c
000002c0: fd4b 83bc 0d5c 0cbd 6740 623a c01c 833b
000002d0: 1abe 3c3d e53a 10bd 971d fe3c 23b0 8b3c
000002e0: bac4 373c 27df 91bc c07f db3c 7ddd 48bd
000002f0: f060 10bd 33f7 50bc 3afa bbbc ea31 33bd
00000300: 4071 f1bc b3a8 57bb 9a5b 453a f7f8 1e3d
00000310: 836e 49bd da11 493c c073 0d3c 0dff 743c
00000320: dd7c 96bc b26d 333d 73fd c9bb 8083 b83b
00000330: a770 a83c 078c 14bd cdd2 783b 5a50 b03b
00000340: b0de 97bc c0d6 543c 40c0 163c 3f29 0e3d
00000350: 8333 81bc 9aa8 aaba 674f 993a ea6a f9bc
00000360: 12da 0ebd dd42 b43c 43aa 0e3d 1a66 44bc
00000370: 2f79 363d e8fb 15bd fd58 d4bc 38f3 213d
00000380: 1a50 c93c c04e af3c a780 02bc f397 433d
00000390: ad79 313d 223e 23bd 972f e33c 6078 323d
000003a0: 3847 0d3d 38ab 4b3d f2db 12bd 80b6 ebbc
000003b0: c7cd 2bbd afd8 1ebd cd76 6dba bfbb 013d
000003c0: 372a f23c 6a49 0abd 9a69 9539 d2d9 11bd
000003d0: 43f2 cabc 00f5 84bb eae1 c0bc 8764 4a3c
000003e0: 006f fc3a 1ada 0d3d 6a22 d3bc 38ac 0b3d
000003f0: 934b 883c 6719 dc3c 4d09 21bb 9a4e 883c
0.028631782 -0.014021808 -0.042783268 0.049124688 -0.042352017 -0.02389639 -0.011086387 -0.023024345
-0.021194387 0.01849714 -0.017806744 -0.016803438 0.030721992 -0.030905545 0.048094034 0.008163661
-0.008448315 -0.040428758 0.039093327 -0.0023395538 -0.0014474451 -0.025279904 -0.037867445 -0.016522855
0.009138763 -0.0326943 0.0054754973 -0.037638914 -0.0033562481 0.04408074 -0.034565028 -0.01601298
-0.03116932 -0.0061474564 0.018900627 -0.014674348 0.004408169 0.009589559 0.028750723 0.034679223
-0.044208366 0.027193755 -0.029737128 -0.0193509 -0.03460024 0.033462252 0.016073382 -0.008097559
-0.021317458 -0.00044670104 -0.0026256442 -0.014157802 -0.013270772 -0.027342219 -0.015906906 -0.004182804
0.042594064 0.020455165 -0.0007295728 0.034144755 -0.007923759 0.04782777 -0.017846538 0.025145555
-0.032030147 -0.021201188 0.03738 -0.030376619 0.013949347 0.02552246 -0.022216363 0.015722377
-0.03620872 0.044057276 0.01007002 -0.007766104 0.03628337 -0.044620585 -0.024406403 0.011135465
0.03193904 -0.045534503 0.040626522 0.03417736 -0.02306499 0.045153 0.02970593 -0.041377563
-0.02629844 -0.0017331064 -0.042009216 0.013530982 0.019492496 0.0029683113 -0.02622155 -0.014685518
-0.028673394 0.048051734 0.01931941 0.018134898 0.0001828909 0.02770421 -0.043126967 -0.04820789
0.009049231 -0.03301992 0.029301887 0.04747965 0.002266091 -0.045040365 -0.046088804 -0.034454245
0.022223432 0.03601816 0.029816782 -0.04635938 -0.031405207 0.043600943 -0.0007545948 -0.013179094
0.031964596 0.045370616 0.009347761 -0.04611932 -0.02774616 -0.023657536 -0.04218017 -0.0046922327
0.0054017305 -0.01098556 -0.019769639 0.035475206 0.008276976 -0.037099272 0.04682033 0.006252122
0.02798428 -0.01843347 -0.038685262 0.022485126 0.009512526 0.018833203 -0.031701576 0.000135988
0.026308615 -0.018455619 0.030814648 -0.04002994 0.019219572 0.009953982 0.0014801205 -6.353855e-05
0.03828872 0.012671334 0.012888587 0.03139391 -0.01514588 -0.034975566 -0.021153277 0.038890034
0.0012457728 -0.045850005 0.018322034 0.02886123 -0.04099487 -0.044000547 -0.023657447 0.0008489966
-0.026601745 -0.0068226694 0.04609548 -0.029067475 -0.01124453 -0.019773914 -0.000120198725 0.02227866
-0.016027445 -0.034267474 0.00086308125 0.00400123 0.046079732 -0.035212416 0.031019969 0.017051762
0.011216337 -0.017806603 0.026794314 -0.049039353 -0.035248697 -0.012754249 -0.022946466 -0.043748774
-0.029472947 -0.003290695 0.00075286033 0.03881165 -0.049177658 0.012272323 0.008633554 0.014953387
-0.018370086 0.043805785 -0.0061642467 0.0056309104 0.02056153 -0.036266353 0.0037967444 0.0053806724
-0.018538803 0.0129906535 0.009201109 0.034707304 -0.015771633 -0.0013020218 0.0011696637 -0.030446488
-0.034875937 0.02200454 0.034830343 -0.011987234 0.044549163 -0.03661719 -0.02592134 0.039538592
0.024574328 0.021399856 -0.007965243 0.047752332 0.04332893 -0.039854176 0.027732654 0.04357183
0.034491748 0.049723834 -0.035854287 -0.028773546 -0.04194429 -0.038780864 -0.0009058535 0.03167319
0.029561145 -0.03376142 0.00028498174 -0.03560812 -0.024773723 -0.0040575266 -0.023545224 0.012353069
0.0019259155 0.034631826 -0.025773246 0.034099787 0.0166376 0.026867582 -0.0024572194 0.016639043

bias f4 [120]
00000000: a398 3abd 2a1a c2bc 23b2 c63c 1afb a93c
00000010: b5b3 0c3d 8798 f63c 53c9 423d 7f17 423d
00000020: 8046 363c 4ffa 383d a70b 32bc 2266 1d3d
00000030: 47d1 073c a751 c03b 5ae6 3abd 300a 8e3c
00000040: 3d03 44bd 0070 1db9 00a2 583c a582 173d
00000050: d36a 04bd af45 1bbd 5588 2cbd 75ce 49bd
00000060: 7d7f c23c e7a9 593c 330d 9ebc bf6e 193d
00000070: 90c4 a7bc 2383 94bc d84a 23bd 4de5 5fbc
00000080: 02c1 143d 47e9 023d a79d e6bb fd06 a1bc
00000090: c08c cbbb a703 5d3c f0b9 b3bc 3a22 093c
000000a0: 87f7 20bd 776c f43c 4041 f13b 4549 243d
000000b0: 0289 17bd 671b c4ba b33b 593b 7a57 053c
000000c0: b764 993c 9fe4 27bd 5f55 3f3d ad97 313d
000000d0: 93c6 8ebc 9a4e 1d3c c883 4a3d 1348 573c
000000e0: 7a79 38bd 0734 d9bc f34a cdbb ba11 09bd
000000f0: 7bf1 1fbd e79e 20bd f3f7 bb3b 13bb d1bc
00000100: 7d4a 03bd 9da4 cabc cd01 6a3b 428f 303d
00000110: 40d1 793c ff41 243d cdb2 2f3d 4b69 12bd
00000120: 5a3d 0d3d 03fb 023d da8e f2bb f26c 1b3d
00000130: 1008 d2bc e0c5 48bc b322 dc3b 6a60 36bd
00000140: da60 153d a802 26bd 5ac3 553c 33d3 163b
00000150: d00e acbc 8afa 833c 8324 29bd 5fd1 2cbd
00000160: 8aa9 e5bc 9ac7 bebb 5dfd d0bc 3b05 20bd
00000170: a70a a73b 5d83 f83c 67f2 a33c b0b5 ed3c
00000180: 87f2 7a3c 20ba 75bc 5318 f6bc 0397 4cbd
00000190: 1a51 fbbb 2bbb 353d 1aae c9bb adac 66bc
000001a0: 2d3a 54bc 1721 e93c 5ae3 4abd 3dad 283d
000001b0: 4a34 3dbd b741 b13c 20fc 3e3c 9a5d 8ebb
000001c0: 4029 383d e75c 59bc 97f3 ea3c 671f d8ba
000001d0: 20de 1c3c 4050 38bc 33c5 e83a f70a 2f3d
-0.045555722 -0.023694117 0.024254864 0.020749617 0.03435107 0.030102028 0.04755528 0.04738569
0.011125207 0.045160588 -0.010867036 0.03842748 0.008289642 0.0058691087 -0.045629837 0.017338842
-0.04785465 -0.0001501441 0.013222218 0.036989827 -0.032328438 -0.037908252 -0.042122204 -0.04926916
0.023742432 0.013285137 -0.019293403 0.03745913 -0.02047947 -0.018128937 -0.0398663 -0.013665509
0.03631688 0.03196075 -0.0070378366 -0.019656653 -0.006211847 0.01348964 -0.021939248 0.008369977
-0.03929856 0.029836876 0.0073625147 0.040108938 -0.036995895 -0.001496178 0.0033147156 0.008138532
0.018724782 -0.040989514 0.046712276 0.04335754 -0.017428672 0.00960126 0.049442083 0.013139742
-0.045037724 -0.026514066 -0.006265038 -0.03346417 -0.039048653 -0.03921404 0.005736345 -0.0256019
-0.03205346 -0.024736697 0.003570664 0.04310537 0.015247643 0.040102 0.042895127 -0.035744946
0.034482338 0.031977665 -0.007402283 0.037945695 -0.02563861 -0.012254208 0.0067180037 -0.04452554
0.036469318 -0.040529877 0.013047064 0.0023014068 -0.021003157 0.016110677 -0.041294586 -0.04219186
-0.028034944 -0.005822134 -0.025511438 -0.03906749 0.0050977054 0.030336076 0.020013047 0.0290173
0.015316612 -0.014997989 -0.030040896 -0.049948703 -0.00766958 0.04436795 -0.0061547877 -0.014079255
-0.012953323 0.028458161 -0.049533226 0.041180838 -0.046192445 0.02163778 0.011656791 -0.0043446543
0.044961214 -0.013266779 0.028680606 -0.0016488851 0.009574443 -0.011249602 0.0017758965 0.042735066

weight f4 [84, 120]
00000000: f64d edbc 9736 09bc 727e 83bd c634 87bd
00000010: 7d55 5dbd fbbb 613d 4b92 ae3d 1fdc 5c3b
00000020: 41a5 693d 74ca 86bd 6fe6 803c 387b 04bd
00000030: 1f9d 24bd 77cf bfbc 60b8 653d c2f8 e2bc
00000040: 2db0 97bd 9f96 5a3c 0995 aa3d 9190 bc3c
00000050: 252f b03d 4845 163d 15d9 d13c baa8 a7bb
00000060: 4187 2dbd 15db ae3c 8931 22bd 85e3 5abd
00000070: 5e51 443d 726b a23b 9606 7b3d 0de1 523d
00000080: c786 923c fc9c 07bc 3280 ad3d 360c c6bc
00000090: d5c4 63bd 5c31 60bd 10b0 4e3d 15d9 263d
000000a0: edd6 50bd da1a aa3d de89 6cbd 5594 e9bb
000000b0: e262 a63d 2721 9bbd 4345 4c3d 8842 123d
000000c0: 565d ebbc 500a b3bd dd74 9bbd 61e5 a83d
000000d0: 8158 49bd d262 18bd 83d6 82bb ebb4 3e3d
000000e0: dfc1 a2bc 8d98 d3bc 0bac f7bc 7e61 853d
000000f0: faa9 ccbc 3e19 a43d fa3b 2a3d 85f2 92bd
00000100: 5415 6cbd 2d1b 84bc d92a 5e3d 4e57 533c
00000110: 5481 5d3d 716b 83bd 9942 003d 0960 6dbc
00000120: 1f4e fe3b c7ec a43d 2fed bebc 6bfd 753d
00000130: 908f 983c de09 013d 2826 063c 8989 b4bc
00000140: 8c05 93bd 2b99 68bd 27be babd b286 ad3c
00000150: 66d1 a3bd 7120 91bd 5fad 2f3d 179c b83d
00000160: cae4 6c3d 2067 953d 4f0f 36bc 2031 f4bc
00000170: dfa6 823d c2ac 9f3d fed5 99bd f9aa a1bd
00000180: 6d90 b7bd d087 90bd d094 18bd 6185 ae3d
00000190: ac11 d33c df20 c8bc d87f 01bd 66a5 8c3d
000001a0: cc3d 213d f96e 9ebd f354 96bd aa96 633c
000001b0: 6faf 00bd f77c 12bc 9f62 93bc dd2a 86bd
000001c0: 4806 a73c 3760 f63c 9c29 3d3b 52d4 c83c
000001d0: 756e 983d d9b1 a33d d7f0 b8bc d616 aabd
000001e0: 393f a83d c929 56bd cfde 17bd ce3c abbd
000001f0: 3e9e 883d aafc 923d 3b94 583d 0d3a 663b
00000200: f119 19bd bc4c 1dbd 64f4 803d a490 8cbb
00000210: 1acc 01bd a776 3f3d 0ffd 69bd 4585 46bd
00000220: 6e7b 483b 362e ebbc e795 89bd cebd ee3c
00000230: 8fdc c5bc 5087 9f3d 419f a33d 4cf3 593d
00000240: 6268 7d3d d837 7e3c a4b1 763d dc19 a53d
00000250: d054 24bd 5dab 553d fe92 6fbd fae2 953d
00000260: 4df0 d03b 35af b2bc 9b4a 5fbd 9e4d b7bd
00000270: dfe4 383d 4b19 4b3c 3530 81bd 01c2 b3bc
00000280: 0015 6a3c 24bd b0bd 6da8 b23d 7ed4 b93d
00000290: 8e28 653d 73ab fabc 4f58 82bd 2b43 80bd
000002a0: 7976 a9bd 8e4d 67bc 9452 ba3d 2ce1 38bd
000002b0: 0df2 80bb 9e75 acbd 3ebd 993d 8bde 08bc
000002c0: e36f b6bd 286d c93c 0467 933d b447 61bd
000002d0: a726 633d 39cb 643d db28 78bd e028 14bd
000002e0: 98b9 1d3d bb39 663c 7df0 9cbd 26ac 75bd
000002f0: fd68 b8bd 087b 9d3d c4e2 7dbd 6a03 f4bc
00000300: 0c04 d9bb 2c6f f23c fa68 8fbc cbc3 8f3d
00000310: 2bee 343d d857 26bd b5d2 323d ab25 7abd
00000320: 2162 843d 2955 303d 177f e03c 7a3a 36bd
00000330: bf91 01bd 3659 92bd 7b7e 6dbc adce 00bc
00000340: 3221 a93b 6093 90bd e1f4 6dbd fcbe a8bd
00000350: 4188 3d3d c925 15bc 1263 143d b913 b53c
00000360: 9dd6 b0bd a6ff 063c ce75 863b d36a 05bd
00000370: 18c9 7e3d 62ec 8bbd bd4c 8abc 58e3 123c
00000380: 0bef e1bc 9d8a 523d 0d9b 97bc d494 28bd
00000390: 341e 9ebd c5e9 16bd 085c 8cbd 9393 8a3d
000003a0: a701 72bd 5fe6 afbb f040 a73d 366c a63d
000003b0: 8225 6c3d f5c8 8dbd c2c5 56bd 8a97 8ebc
000003c0: d8a9 8cbd d75d 7dbd 6c89 a6bd 71da 9fbd
000003d0: 3e3b 5d3b 5585 a53d 1201 5dbd fdad 083d
000003e0: 91d6 753d ffeb a6bd 4da8 98bd ef5a b93d
000003f0: cdb0 813d 7a2f 96bc 873d 91bc 7e2b 4a3d
-0.028967839 -0.008374832 -0.06420602 -0.066018626 -0.054036606 0.055110913 0.08523997 0.0033700538
0.057042364 -0.065815836 0.01573488 -0.032344073 -0.040188905 -0.023414357 0.056084037 -0.027706508
-0.0740665 0.013341575 0.083292075 0.023018153 0.08602742 0.036687165 0.025616208 -0.0051165493
-0.042365316 0.0213447 -0.03959802 -0.053439636 0.04792916 0.004956656 0.061285578 0.051484156
0.017886532 -0.008277174 0.08471717 -0.024175745 -0.055607636 -0.054734573 0.050460875 0.04073437
-0.05098622 0.08305903 -0.057748668 -0.0071282783 0.08124329 -0.07574683 0.04987074 0.03570798
-0.02873103 -0.08742201 -0.07590649 0.082468756 -0.04915667 -0.037203617 -0.003992857 0.046559256
-0.019867836 -0.025829578 -0.030233404 0.06512736 -0.024983395 0.08012627 0.041561104 -0.07175163
-0.057637528 -0.01612624 0.05424008 0.012899233 0.054078415 -0.06416977 0.031313512 -0.014488229
0.0077607776 0.08052974 -0.023306457 0.06005613 0.018623143 0.03150355 0.008187808 -0.022038238
-0.07178792 -0.056786697 -0.091183 0.021182392 -0.07998924 -0.07086266 0.04288995 0.09014147
0.057835378 0.0729506 -0.011112048 -0.02980858 0.063794844 0.07796623 -0.07511519 -0.078939386
-0.08963094 -0.07057154 -0.037251294 0.08521534 0.025765263 -0.024429737 -0.031616062 0.06867485
0.039365575 -0.0773601 -0.073404215 0.013890902 -0.031417307 -0.008940927 -0.017991362 -0.06551144
0.020388737 0.030075176 0.0028863912 0.024515305 0.07442943 0.07992906 -0.022575779 -0.08305137
0.08215184 -0.052285943 -0.03707772 -0.08361207 0.06670807 0.07177098 0.05287574 0.0035129816
-0.037378255 -0.038403258 0.06296614 -0.0042897034 -0.031688787 0.046744015 -0.0571261 -0.04846694
0.0030591148 -0.028708559 -0.06718045 0.02914324 -0.024153022 0.07789481 0.0798936 0.05321054
0.061867125 0.015516244 0.060228005 0.08061573 -0.040119946 0.052165378 -0.058489792 0.07318683
0.0063763023 -0.02181206 -0.05451451 -0.08950351 0.045140143 0.012396167 -0.06308023 -0.021943094
0.014287233 -0.08629826 0.08723531 0.09073733 0.05594688 -0.030599331 -0.063645 -0.06262811
-0.0827455 -0.014117612 0.09097782 -0.045136616 -0.0039351047 -0.08420871 0.07506798 -0.00835384
-0.089080594 0.024588183 0.07197383 -0.055000022 0.055456784 0.05585787 -0.060585838 -0.036171794
0.038507074 0.01405185 -0.07663057 -0.059978627 -0.090044 0.07689482 -0.06198384 -0.029786784
-0.006622797 0.029594027 -0.017506111 0.070197664 0.044172447 -0.040611118 0.043657977 -0.06107108
0.06464029 0.043049965 0.027404351 -0.04448936 -0.031633135 -0.07145922 -0.014495487 -0.007861775
0.005161428 -0.070593596 -0.058094863 -0.082395524 0.04627252 -0.009103247 0.036227293 0.022104131
-0.08634684 0.008239662 0.004103399 -0.03257258 0.062203497 -0.06832196 -0.016882295 0.008965336
-0.027579805 0.051401723 -0.018506551 -0.04115756 -0.077206045 -0.036844034 -0.06853491 0.06766429
-0.059083607 -0.0053680385 0.08166683 0.08126108 0.057652958 -0.06923095 -0.05243469 -0.017406244
-0.068683326 -0.06185707 -0.0813168 -0.07805336 0.0033757235 0.08082072 -0.0539561 0.033369053
0.06001908 -0.081504814 -0.07453976 0.09050547 0.0633255 -0.018333185 -0.017729534 0.049357884

bias f4 [84]
00000000: a8e4 8ebb 31f5 c43c 3167 803d e94f 963d
00000010: 04f4 67bd 060f a43d 9e3c a1bd 3511 b5bd
00000020: 1661 033a 45a1 263d 6222 183d bbf9 78bd
00000030: 5827 b93d cf1c 8e3d c85a 52bd cc55 8b3d
00000040: 6f3f 42bd 8ff2 7a3d 3770 96bd eb65 9abc
00000050: 6f62 aabd 0fd5 083d 09d4 873d e331 aebd
00000060: de27 b33d 484c db3b 7d24 4fbb adeb d5bb
00000070: d372 aebd 0d44 8e3d 01a2 a0bc e0d8 b23d
00000080: 8725 33bd cb93 573c 082a 973d 6396 2ebc
00000090: c23f d53c 59a4 ef3c aef6 77bd d7e6 3abd
000000a0: 0a81 a5bd 55d1 9f3d a485 41bd 7be2 28bb
000000b0: 8c87 973d b782 3cbd 76c1 aa3c f309 a73d
000000c0: 1e4b ef3a 4631 953d c99f fa3c 52a6 a33d
000000d0: d885 593d c451 c13c cc9d 2f3a 2949 b93d
000000e0: 8144 6dbd fd05 303d 46f7 25bd c570 083c
000000f0: 261d adbd 2e5e a03b 2adc fe3c 1f0c f8bb
00000100: 48e0 c5bc 9189 3d3d edb8 a93d 66c0 253d
00000110: 4eeb 74bd c8a7 863d 5cb3 c6bc 5da4 113d
00000120: ee9e 893d 0398 b6bd 6485 933d da19 b6bb
00000130: 185f 1d3c de29 2dbd 6fe8 b9bd c56e 633c
00000140: 93f4 0f3d 9fd5 3a3d 0544 77bc c3fa 98bd
-0.004360754 0.024042698 0.06269682 0.073394604 -0.056629196 0.08010678 -0.0787289 -0.088411726
0.00050117204 0.040681142 0.037142165 -0.060785037 0.09040707 0.069390886 -0.051356107 0.06803474
-0.047423776 0.06126648 -0.07345622 -0.018847426 -0.08319556 0.033406314 0.06632239 -0.08505609
0.087478384 0.006692443 -0.0031607442 -0.006528339 -0.08517995 0.069465734 -0.0196085 0.08732772
-0.04373696 0.013157795 0.07381064 -0.010655972 0.026031379 0.029253172 -0.060537986 -0.045630302
-0.08081253 0.07803599 -0.04724659 -0.0025769759 0.073989004 -0.046023097 0.020844202 0.081561945
0.001825664 0.07284789 0.03059377 0.079907075 0.05310616 0.02359856 0.0006699234 0.09047157
-0.05792666 0.04297446 -0.04051902 0.008327668 -0.08452825 0.0048940396 0.031110842 -0.0075698043
-0.024154797 0.04627377 0.08287225 0.04046669 -0.059794717 0.065749705 -0.024255447 0.03555714
0.067197666 -0.08915713 0.072031766 -0.005557281 0.009605192 -0.042276256 -0.09077536 0.01388139
0.035145354 0.04561388 -0.015091901 -0.07469704

weight f4 [10, 84]
00000000: ccbc 68bc 0640 ea39 148d d33d 7e26 933c
00000010: 0c3c d7bc 7317 d6bd 0f17 643d fb81 353d
00000020: 02ab 27bd ff20 17bd db58 18bd 0d22 bdbc
00000030: fa8e 8c3d 6012 8e3d c9f3 d0bd b420 afbc
00000040: bba0 c8bd ddc8 b9bc 056c b63c 393d 44bd
00000050: aae1 b73c 0962 0fbd bd3e aabd 05e5 193d
00000060: 109b 583d cb6c 93bd 9048 0a3c b833 dc3d
00000070: 3e1f 49bd f4e6 91bd c117 dfbd 0a2c 89bd
00000080: 023c c9bb 3dec 6e3d 196e b2bd c59a 813d
00000090: dacf 483d d560 b1bd 67cc a73d 7104 d93d
000000a0: 83f2 c3bb ef86 c23d 7237 90bd 596c 7cbd
000000b0: 5c4a d3bd f107 a8bd 2d54 e33c 99c5 5e3d
000000c0: 6c1a 31bc 0c7b 4d3d de58 ba3d 4a34 1dbc
000000d0: b8ec 8e3d 06ca e03c 52d3 9bbd 30e4 40bd
000000e0: e4a1 9dbd 14ff 9c3d 3156 bbbd 1433 933d
000000f0: 3612 17bd e39c 433d c194 d63b 9bff d2bd
00000100: 080a 643d b18a 253d dfaa fbbc dd1b 83bd
00000110: 0f68 11bd e2ff 713d 856b cdbd c416 0fbd
00000120: de8c aa3d 6d8a 4abd 1119 03bd c3b2 783d
00000130: 8cbe 7c3d 8813 c13d 30dd 41bc 1139 8dbd
00000140: 5fd8 3d3d ee73 a53c 4ecf a83d 1f88 c83d
00000150: da0e bcbc 29f0 d63d e582 13bd bf1d 593d
00000160: 11e5 9d3d 72c3 c3bd 7cd5 33bd 81ce d0bd
00000170: 9e9a 99bd 900e d9bd 3b5f aa3d d744 3a3d
00000180: f375 503d 0ce4 5fbd 0cd0 eabb 4aae a33d
00000190: aacc 3f3c 781f 47bd 9ecd 8d3d 4acd 513d
000001a0: 2aa0 83bd bc1b b3bd 1f22 413d 4242 aebd
000001b0: a79c 873d 636e 96bc 4893 2bbc ab28 973d
000001c0: eaa8 213c ace0 773c 527d ccbd 342f 10bd
000001d0: edbc 3abd 6b51 ed3c ecf5 90bd dd31 48bd
000001e0: 2226 48bd e556 ba3d eb78 9b3d 06fb 0abd
000001f0: ae11 733d 9111 2e3d 655d a4bd d338 92bd
00000200: 32a6 aebd 9ac5 a2bd 0f9a b3bd 5eda b33c
00000210: 9518 ad3c 9278 a03d cc5f 0c3d 4c5c 053d
00000220: 5565 49bd 8bea a3bd e083 503d 0fba d9bc
00000230: 5a3c da3d d8ab 1ebd b85f 88bd 33c9 2d3d
00000240: 27ce c2bd 509f 85bd d5ae 493d 5741 903b
00000250: 79e8 7cbd e872 a1bb 5ba6 babd 8ef0 2b3d
00000260: 066c 92bc 1d73 a9bd 3b61 c43c e576 b03c
00000270: 284e acbd bac2 b63d 9ece 96bd 07f6 bb3d
00000280: 3738 953c 8583 c8bd 8ebb 38bd 8c89 d3bd
00000290: 469b 263d 98d7 d5bd b8be cc3d 6851 99bc
000002a0: d60d b1bd 0e7f 683d 1034 e5bb 0fb5 35bd
000002b0: bd5a 963d cb88 cebd 328a 003d 3e33 a9bc
000002c0: 7444 98bc eb7d 3dbd be2d a4bd f71f 843d
000002d0: 55f3 9f3c 73fe 23bc 54c0 34bd 264d 233d
000002e0: 5bd2 ae3d 27ad 843d 1e54 9e3b ee1b a6bc
000002f0: 6fa7 603d ddaa b3bd 50a6 24bc 6b5b 99bc
00000300: b996 c13d 32b1 0a3c e1c2 953d 04c3 ab3b
00000310: 5679 283d 4545 443c 0109 973d 97ca 14bc
00000320: 3d77 bcbc b469 bebc dc04 f2ba c874 96bd
00000330: f5ac 28bd ec61 52bc 6e50 a2bd 1db4 2d3d
00000340: 1446 73bd d3ca 243d 7e5e 203d 34c7 0cbd
00000350: 1c82 b6bd 54db 95bd 8631 bb3a d883 b1bd
00000360: 6b9e 72bd 31c8 82bb 5868 60bd b5d1 a5bd
00000370: 1a4b 093d e402 3c3d f9ae 4cbc 9aad ddbd
00000380: 91ef 133d 392b b2bc 0e6d 8d3d 3f6f 4ebc
00000390: b43b 28bc 3946 9ebd 5eae a6bd b975 dbbb
000003a0: c449 80bd 9b51 a8bd 223d 50bd c1e5 f53c
000003b0: 7c70 ae3d e0db 00bd 12ce ce3d 6f57 95bd
000003c0: 9eab 883d a9e6 d6bd 0844 323d 2356 d9bd
000003d0: fb95 88bd ded3 7b3d 6fe2 3abd c473 ae3c
000003e0: 5fca 6f3d 9c82 6dbd 90e6 d33d 8d21 78bd
000003f0: 336a ce3d 66f0 6abd 66c1 7b3d b72b 183d
-0.014205169 0.0004467966 0.10329643 0.01796269 -0.02627375 -0.10453691 0.055686053 0.044313412
-0.04093457 -0.036896702 -0.037194114 -0.023087526 0.06863208 0.069370985 -0.10202748 -0.021377899
-0.09796282 -0.022678787 0.022268305 -0.04790995 0.022446472 -0.035005603 -0.08312748 0.037571926
0.052882254 -0.07198485 0.008440152 0.10752052 -0.04910206 -0.07124129 -0.108932026 -0.06697853
-0.0061411867 0.058330763 -0.08712406 0.06328348 0.049026348 -0.08661047 0.081932835 0.1059655
-0.0059798374 0.09498393 -0.07041825 -0.061626766 -0.10316917 -0.0820464 0.0277501 0.054387663
-0.010809522 0.050166175 0.09098981 -0.009594986 0.06978744 0.027440082 -0.076086655 -0.047092617
-0.07696894 0.0766584 -0.09147299 0.07187477 -0.0368826 0.04775704 0.0065484946 -0.10302659
0.05567363 0.04041547 -0.030721126 -0.06401799 -0.03549963 0.05908192 -0.10030273 -0.03493382
0.083276495 -0.04944842 -0.032006327 0.060717355 0.061705157 0.094275534 -0.01183252 -0.0689565
0.046348926 0.020196881 0.08242665 0.09791588 -0.0229563 0.10495026 -0.036013503 0.053006884
0.077097066 -0.095587626 -0.043904766 -0.101956375 -0.07500194 -0.10598481 0.08318945 0.045475807
0.050893735 -0.05466084 -0.0071659144 0.079922274 0.011706511 -0.048613995 0.06923984 0.05122117
-0.06427033 -0.08745524 0.04715168 -0.085087314 0.06621676 -0.018363183 -0.010472126 0.07380804
0.009866932 0.01512925 -0.099848405 -0.035201266 -0.04559033 0.028969487 -0.07078156 -0.04887568
-0.04886449 0.09098605 0.07591423 -0.0339308 0.059343033 0.04249722 -0.08025626 -0.071397446
-0.08527793 -0.07947846 -0.08769619 0.021954712 0.021129886 0.07835497 0.034271047 0.032558724
-0.049168903 -0.0800372 0.050907016 -0.026577977 0.106560424 -0.0387381 -0.06658882 0.042428207
-0.09511977 -0.06524527 0.049239 0.0044023204 -0.06174514 -0.004927028 -0.09113761 0.041977458
-0.017873775 -0.08273909 0.023972144 0.021541068 -0.084133446 0.0892386 -0.07363628 0.09177785
0.018215282 -0.0979071 -0.04510074 -0.10328969 0.040675424 -0.10441512 0.09997314 -0.018715575
-0.08645217 0.056761794 -0.0069947317 -0.044362124 0.07341526 -0.10084685 0.031381793 -0.020654317
-0.018587328 -0.046262663 -0.08016537 0.06451409 0.01952521 -0.010009396 -0.04412873 0.039868496
0.08536216 0.06478339 0.004831805 -0.02027699 0.054847177 -0.08772824 -0.010049418 -0.01872035
0.09452576 0.008465098 0.07312561 0.0052417535 0.04113134 0.011979406 0.07374764 -0.009081504
-0.023006076 -0.023243763 -0.0018464583 -0.07346493 -0.04118057 -0.012840729 -0.07925497 0.042408098
-0.059393004 0.04023249 0.039152615 -0.034369662 -0.08911535 -0.07317224 0.0014281727 -0.08667725
-0.05923311 -0.00399115 -0.05478701 -0.08096639 0.033518888 0.045901194 -0.012492889 -0.108241275
0.03611714 -0.021749126 0.06905566 -0.012599765 -0.010268141 -0.07728238 -0.08138727 -0.0066973832
-0.0626407 -0.0821869 -0.05083955 0.030016782 0.085175484 -0.03145969 0.100978985 -0.07292067
0.066733584 -0.10493214 0.04352191 -0.106121324 -0.066692315 0.06148135 -0.0456261 0.021295436
0.058542605 -0.057985887 0.10346711 -0.06057887 0.1007885 -0.057358168 0.061463736 0.037151065

bias f4 [10]
00000000: e0db f63c d9a8 86bd ffbb b9bd 2e91 d63d
00000010: 5519 3a3a f1f8 6d3d 4c6a 753d f65d dcbc
00000020: 2d00 dfbd 9fd5 103b
0.030134141 -0.06575174 -0.090690605 0.104769096 0.00070991117 0.058098737 0.059915826 -0.026900273
-0.108887054 0.0022099984
